{"format": "graph-model", "generatedBy": "2.15.0", "convertedBy": "TensorFlow.js Converter v4.22.0", "signature": {"inputs": {"lstm_2_input": {"name": "lstm_2_input:0", "dtype": "DT_FLOAT", "tensorShape": {"dim": [{"size": "-1"}, {"size": "10"}, {"size": "6"}]}}}, "outputs": {"dense_3": {"name": "Identity:0", "dtype": "DT_FLOAT", "tensorShape": {"dim": [{"size": "-1"}, {"size": "5"}]}}}}, "modelTopology": {"node": [{"name": "StatefulPartitionedCall/sequential_1/lstm_3/PartitionedCall/TensorArrayV2_1/element_shape", "op": "Const", "attr": {"value": {"tensor": {"dtype": "DT_INT32", "tensorShape": {"dim": [{"size": "2"}]}}}, "dtype": {"type": "DT_INT32"}}}, {"name": "StatefulPartitionedCall/sequential_1/lstm_3/PartitionedCall/TensorArrayV2_1/num_elements", "op": "Const", "attr": {"value": {"tensor": {"dtype": "DT_INT32", "tensorShape": {}}}, "dtype": {"type": "DT_INT32"}}}, {"name": "StatefulPartitionedCall/sequential_1/lstm_3/zeros_1/packed/1", "op": "Const", "attr": {"value": {"tensor": {"dtype": "DT_INT32", "tensorShape": {}}}, "dtype": {"type": "DT_INT32"}}}, {"name": "StatefulPartitionedCall/sequential_1/lstm_3/zeros_1/Const", "op": "Const", "attr": {"value": {"tensor": {"dtype": "DT_FLOAT", "tensorShape": {}}}, "dtype": {"type": "DT_FLOAT"}}}, {"name": "StatefulPartitionedCall/sequential_1/lstm_3/PartitionedCall/TensorArrayUnstack/TensorListFromTensor/element_shape", "op": "Const", "attr": {"value": {"tensor": {"dtype": "DT_INT32", "tensorShape": {"dim": [{"size": "2"}]}}}, "dtype": {"type": "DT_INT32"}}}, {"name": "StatefulPartitionedCall/sequential_1/lstm_3/Read/ReadVariableOp", "op": "Const", "attr": {"value": {"tensor": {"dtype": "DT_FLOAT", "tensorShape": {"dim": [{"size": "128"}, {"size": "512"}]}}}, "dtype": {"type": "DT_FLOAT"}}}, {"name": "StatefulPartitionedCall/sequential_1/lstm_2/PartitionedCall/transpose_1/perm", "op": "Const", "attr": {"value": {"tensor": {"dtype": "DT_INT32", "tensorShape": {"dim": [{"size": "3"}]}}}, "dtype": {"type": "DT_INT32"}}}, {"name": "StatefulPartitionedCall/sequential_1/lstm_3/strided_slice/stack", "op": "Const", "attr": {"value": {"tensor": {"dtype": "DT_INT32", "tensorShape": {"dim": [{"size": "1"}]}}}, "dtype": {"type": "DT_INT32"}}}, {"name": "StatefulPartitionedCall/sequential_1/lstm_3/strided_slice/stack_1", "op": "Const", "attr": {"value": {"tensor": {"dtype": "DT_INT32", "tensorShape": {"dim": [{"size": "1"}]}}}, "dtype": {"type": "DT_INT32"}}}, {"name": "StatefulPartitionedCall/sequential_1/lstm_3/strided_slice/stack_2", "op": "Const", "attr": {"value": {"tensor": {"dtype": "DT_INT32", "tensorShape": {"dim": [{"size": "1"}]}}}, "dtype": {"type": "DT_INT32"}}}, {"name": "StatefulPartitionedCall/sequential_1/lstm_3/zeros/packed/1", "op": "Const", "attr": {"value": {"tensor": {"dtype": "DT_INT32", "tensorShape": {}}}, "dtype": {"type": "DT_INT32"}}}, {"name": "StatefulPartitionedCall/sequential_1/lstm_3/zeros/Const", "op": "Const", "attr": {"value": {"tensor": {"dtype": "DT_FLOAT", "tensorShape": {}}}, "dtype": {"type": "DT_FLOAT"}}}, {"name": "StatefulPartitionedCall/sequential_1/lstm_3/Read_1/ReadVariableOp", "op": "Const", "attr": {"value": {"tensor": {"dtype": "DT_FLOAT", "tensorShape": {"dim": [{"size": "128"}, {"size": "512"}]}}}, "dtype": {"type": "DT_FLOAT"}}}, {"name": "StatefulPartitionedCall/sequential_1/lstm_3/Read_2/ReadVariableOp", "op": "Const", "attr": {"value": {"tensor": {"dtype": "DT_FLOAT", "tensorShape": {"dim": [{"size": "512"}]}}}, "dtype": {"type": "DT_FLOAT"}}}, {"name": "StatefulPartitionedCall/sequential_1/lstm_3/PartitionedCall/time", "op": "Const", "attr": {"value": {"tensor": {"dtype": "DT_INT32", "tensorShape": {}}}, "dtype": {"type": "DT_INT32"}}}, {"name": "StatefulPartitionedCall/sequential_1/lstm_2/PartitionedCall/TensorArrayV2_1/element_shape", "op": "Const", "attr": {"value": {"tensor": {"dtype": "DT_INT32", "tensorShape": {"dim": [{"size": "2"}]}}}, "dtype": {"type": "DT_INT32"}}}, {"name": "StatefulPartitionedCall/sequential_1/lstm_2/zeros_1/packed/1", "op": "Const", "attr": {"value": {"tensor": {"dtype": "DT_INT32", "tensorShape": {}}}, "dtype": {"type": "DT_INT32"}}}, {"name": "StatefulPartitionedCall/sequential_1/lstm_2/zeros_1/Const", "op": "Const", "attr": {"value": {"tensor": {"dtype": "DT_FLOAT", "tensorShape": {}}}, "dtype": {"type": "DT_FLOAT"}}}, {"name": "StatefulPartitionedCall/sequential_1/lstm_2/PartitionedCall/TensorArrayUnstack/TensorListFromTensor/element_shape", "op": "Const", "attr": {"value": {"tensor": {"dtype": "DT_INT32", "tensorShape": {"dim": [{"size": "2"}]}}}, "dtype": {"type": "DT_INT32"}}}, {"name": "StatefulPartitionedCall/sequential_1/lstm_2/Read/ReadVariableOp", "op": "Const", "attr": {"value": {"tensor": {"dtype": "DT_FLOAT", "tensorShape": {"dim": [{"size": "6"}, {"size": "512"}]}}}, "dtype": {"type": "DT_FLOAT"}}}, {"name": "StatefulPartitionedCall/sequential_1/lstm_2/strided_slice/stack", "op": "Const", "attr": {"value": {"tensor": {"dtype": "DT_INT32", "tensorShape": {"dim": [{"size": "1"}]}}}, "dtype": {"type": "DT_INT32"}}}, {"name": "StatefulPartitionedCall/sequential_1/lstm_2/strided_slice/stack_1", "op": "Const", "attr": {"value": {"tensor": {"dtype": "DT_INT32", "tensorShape": {"dim": [{"size": "1"}]}}}, "dtype": {"type": "DT_INT32"}}}, {"name": "StatefulPartitionedCall/sequential_1/lstm_2/strided_slice/stack_2", "op": "Const", "attr": {"value": {"tensor": {"dtype": "DT_INT32", "tensorShape": {"dim": [{"size": "1"}]}}}, "dtype": {"type": "DT_INT32"}}}, {"name": "StatefulPartitionedCall/sequential_1/lstm_2/zeros/packed/1", "op": "Const", "attr": {"value": {"tensor": {"dtype": "DT_INT32", "tensorShape": {}}}, "dtype": {"type": "DT_INT32"}}}, {"name": "StatefulPartitionedCall/sequential_1/lstm_2/zeros/Const", "op": "Const", "attr": {"value": {"tensor": {"dtype": "DT_FLOAT", "tensorShape": {}}}, "dtype": {"type": "DT_FLOAT"}}}, {"name": "StatefulPartitionedCall/sequential_1/lstm_2/Read_1/ReadVariableOp", "op": "Const", "attr": {"value": {"tensor": {"dtype": "DT_FLOAT", "tensorShape": {"dim": [{"size": "128"}, {"size": "512"}]}}}, "dtype": {"type": "DT_FLOAT"}}}, {"name": "StatefulPartitionedCall/sequential_1/lstm_2/Read_2/ReadVariableOp", "op": "Const", "attr": {"value": {"tensor": {"dtype": "DT_FLOAT", "tensorShape": {"dim": [{"size": "512"}]}}}, "dtype": {"type": "DT_FLOAT"}}}, {"name": "StatefulPartitionedCall/sequential_1/lstm_2/PartitionedCall/time", "op": "Const", "attr": {"value": {"tensor": {"dtype": "DT_INT32", "tensorShape": {}}}, "dtype": {"type": "DT_INT32"}}}, {"name": "StatefulPartitionedCall/sequential_1/lstm_2/PartitionedCall/transpose/perm", "op": "Const", "attr": {"value": {"tensor": {"dtype": "DT_INT32", "tensorShape": {"dim": [{"size": "3"}]}}}, "dtype": {"type": "DT_INT32"}}}, {"name": "StatefulPartitionedCall/sequential_1/lstm_2/PartitionedCall/strided_slice/stack", "op": "Const", "attr": {"value": {"tensor": {"dtype": "DT_INT32", "tensorShape": {"dim": [{"size": "1"}]}}}, "dtype": {"type": "DT_INT32"}}}, {"name": "StatefulPartitionedCall/sequential_1/lstm_2/PartitionedCall/strided_slice/stack_1", "op": "Const", "attr": {"value": {"tensor": {"dtype": "DT_INT32", "tensorShape": {"dim": [{"size": "1"}]}}}, "dtype": {"type": "DT_INT32"}}}, {"name": "StatefulPartitionedCall/sequential_1/lstm_2/PartitionedCall/strided_slice/stack_2", "op": "Const", "attr": {"value": {"tensor": {"dtype": "DT_INT32", "tensorShape": {"dim": [{"size": "1"}]}}}, "dtype": {"type": "DT_INT32"}}}, {"name": "StatefulPartitionedCall/sequential_1/lstm_2/PartitionedCall/while/loop_counter", "op": "Const", "attr": {"value": {"tensor": {"dtype": "DT_INT32", "tensorShape": {}}}, "dtype": {"type": "DT_INT32"}}}, {"name": "StatefulPartitionedCall/sequential_1/lstm_2/PartitionedCall/TensorArrayV2Stack/TensorListStack/element_shape", "op": "Const", "attr": {"value": {"tensor": {"dtype": "DT_INT32", "tensorShape": {"dim": [{"size": "2"}]}}}, "dtype": {"type": "DT_INT32"}}}, {"name": "StatefulPartitionedCall/sequential_1/lstm_3/PartitionedCall/strided_slice/stack", "op": "Const", "attr": {"value": {"tensor": {"dtype": "DT_INT32", "tensorShape": {"dim": [{"size": "1"}]}}}, "dtype": {"type": "DT_INT32"}}}, {"name": "StatefulPartitionedCall/sequential_1/lstm_3/PartitionedCall/strided_slice/stack_1", "op": "Const", "attr": {"value": {"tensor": {"dtype": "DT_INT32", "tensorShape": {"dim": [{"size": "1"}]}}}, "dtype": {"type": "DT_INT32"}}}, {"name": "StatefulPartitionedCall/sequential_1/lstm_3/PartitionedCall/strided_slice/stack_2", "op": "Const", "attr": {"value": {"tensor": {"dtype": "DT_INT32", "tensorShape": {"dim": [{"size": "1"}]}}}, "dtype": {"type": "DT_INT32"}}}, {"name": "StatefulPartitionedCall/sequential_1/lstm_3/PartitionedCall/while/loop_counter", "op": "Const", "attr": {"value": {"tensor": {"dtype": "DT_INT32", "tensorShape": {}}}, "dtype": {"type": "DT_INT32"}}}, {"name": "StatefulPartitionedCall/sequential_1/lstm_3/PartitionedCall/TensorArrayV2Stack/TensorListStack/element_shape", "op": "Const", "attr": {"value": {"tensor": {"dtype": "DT_INT32", "tensorShape": {"dim": [{"size": "2"}]}}}, "dtype": {"type": "DT_INT32"}}}, {"name": "StatefulPartitionedCall/sequential_1/lstm_3/PartitionedCall/strided_slice_2/stack", "op": "Const", "attr": {"value": {"tensor": {"dtype": "DT_INT32", "tensorShape": {"dim": [{"size": "1"}]}}}, "dtype": {"type": "DT_INT32"}}}, {"name": "StatefulPartitionedCall/sequential_1/lstm_3/PartitionedCall/strided_slice_2/stack_1", "op": "Const", "attr": {"value": {"tensor": {"dtype": "DT_INT32", "tensorShape": {"dim": [{"size": "1"}]}}}, "dtype": {"type": "DT_INT32"}}}, {"name": "StatefulPartitionedCall/sequential_1/lstm_3/PartitionedCall/strided_slice_2/stack_2", "op": "Const", "attr": {"value": {"tensor": {"dtype": "DT_INT32", "tensorShape": {"dim": [{"size": "1"}]}}}, "dtype": {"type": "DT_INT32"}}}, {"name": "StatefulPartitionedCall/sequential_1/dense_2/MatMul/ReadVariableOp", "op": "Const", "attr": {"value": {"tensor": {"dtype": "DT_FLOAT", "tensorShape": {"dim": [{"size": "128"}, {"size": "64"}]}}}, "dtype": {"type": "DT_FLOAT"}}}, {"name": "StatefulPartitionedCall/sequential_1/dense_2/BiasAdd/ReadVariableOp", "op": "Const", "attr": {"value": {"tensor": {"dtype": "DT_FLOAT", "tensorShape": {"dim": [{"size": "64"}]}}}, "dtype": {"type": "DT_FLOAT"}}}, {"name": "StatefulPartitionedCall/sequential_1/dense_3/MatMul/ReadVariableOp", "op": "Const", "attr": {"value": {"tensor": {"dtype": "DT_FLOAT", "tensorShape": {"dim": [{"size": "64"}, {"size": "5"}]}}}, "dtype": {"type": "DT_FLOAT"}}}, {"name": "StatefulPartitionedCall/sequential_1/dense_3/BiasAdd/ReadVariableOp", "op": "Const", "attr": {"value": {"tensor": {"dtype": "DT_FLOAT", "tensorShape": {"dim": [{"size": "5"}]}}}, "dtype": {"type": "DT_FLOAT"}}}, {"name": "lstm_2_input", "op": "Placeholder", "attr": {"shape": {"shape": {"dim": [{"size": "-1"}, {"size": "10"}, {"size": "6"}]}}, "dtype": {"type": "DT_FLOAT"}}}, {"name": "StatefulPartitionedCall/sequential_1/lstm_3/PartitionedCall/TensorArrayV2_1", "op": "TensorListReserve", "input": ["StatefulPartitionedCall/sequential_1/lstm_3/PartitionedCall/TensorArrayV2_1/element_shape", "StatefulPartitionedCall/sequential_1/lstm_3/PartitionedCall/TensorArrayV2_1/num_elements"], "attr": {"shape_type": {"type": "DT_INT32"}, "element_dtype": {"type": "DT_FLOAT"}}, "experimentalType": {"typeId": "TFT_PRODUCT", "args": [{"typeId": "TFT_ARRAY", "args": [{"typeId": "TFT_TENSOR", "args": [{"typeId": "TFT_FLOAT"}]}]}]}}, {"name": "StatefulPartitionedCall/sequential_1/lstm_3/PartitionedCall/while/enter/_105", "op": "Enter", "input": ["StatefulPartitionedCall/sequential_1/lstm_3/Read/ReadVariableOp"], "attr": {"is_constant": {"b": false}, "frame_name": {"s": "U3RhdGVmdWxQYXJ0aXRpb25lZENhbGwvc2VxdWVudGlhbF8xL2xzdG1fMy9QYXJ0aXRpb25lZENhbGwvd2hpbGU="}, "T": {"type": "DT_FLOAT"}, "parallel_iterations": {"i": "32"}}}, {"name": "StatefulPartitionedCall/sequential_1/lstm_3/PartitionedCall/while/enter/_106", "op": "Enter", "input": ["StatefulPartitionedCall/sequential_1/lstm_3/Read_1/ReadVariableOp"], "attr": {"is_constant": {"b": false}, "frame_name": {"s": "U3RhdGVmdWxQYXJ0aXRpb25lZENhbGwvc2VxdWVudGlhbF8xL2xzdG1fMy9QYXJ0aXRpb25lZENhbGwvd2hpbGU="}, "T": {"type": "DT_FLOAT"}, "parallel_iterations": {"i": "32"}}}, {"name": "StatefulPartitionedCall/sequential_1/lstm_3/PartitionedCall/while/enter/_107", "op": "Enter", "input": ["StatefulPartitionedCall/sequential_1/lstm_3/Read_2/ReadVariableOp"], "attr": {"is_constant": {"b": false}, "frame_name": {"s": "U3RhdGVmdWxQYXJ0aXRpb25lZENhbGwvc2VxdWVudGlhbF8xL2xzdG1fMy9QYXJ0aXRpb25lZENhbGwvd2hpbGU="}, "T": {"type": "DT_FLOAT"}, "parallel_iterations": {"i": "32"}}}, {"name": "StatefulPartitionedCall/sequential_1/lstm_3/PartitionedCall/while/enter/_99", "op": "Enter", "input": ["StatefulPartitionedCall/sequential_1/lstm_3/PartitionedCall/time"], "attr": {"is_constant": {"b": false}, "frame_name": {"s": "U3RhdGVmdWxQYXJ0aXRpb25lZENhbGwvc2VxdWVudGlhbF8xL2xzdG1fMy9QYXJ0aXRpb25lZENhbGwvd2hpbGU="}, "T": {"type": "DT_INT32"}, "parallel_iterations": {"i": "32"}}}, {"name": "StatefulPartitionedCall/sequential_1/lstm_2/PartitionedCall/while/enter/_45", "op": "Enter", "input": ["StatefulPartitionedCall/sequential_1/lstm_2/Read/ReadVariableOp"], "attr": {"is_constant": {"b": false}, "frame_name": {"s": "U3RhdGVmdWxQYXJ0aXRpb25lZENhbGwvc2VxdWVudGlhbF8xL2xzdG1fMi9QYXJ0aXRpb25lZENhbGwvd2hpbGU="}, "T": {"type": "DT_FLOAT"}, "parallel_iterations": {"i": "32"}}}, {"name": "StatefulPartitionedCall/sequential_1/lstm_2/PartitionedCall/while/enter/_46", "op": "Enter", "input": ["StatefulPartitionedCall/sequential_1/lstm_2/Read_1/ReadVariableOp"], "attr": {"is_constant": {"b": false}, "frame_name": {"s": "U3RhdGVmdWxQYXJ0aXRpb25lZENhbGwvc2VxdWVudGlhbF8xL2xzdG1fMi9QYXJ0aXRpb25lZENhbGwvd2hpbGU="}, "T": {"type": "DT_FLOAT"}, "parallel_iterations": {"i": "32"}}}, {"name": "StatefulPartitionedCall/sequential_1/lstm_2/PartitionedCall/while/enter/_47", "op": "Enter", "input": ["StatefulPartitionedCall/sequential_1/lstm_2/Read_2/ReadVariableOp"], "attr": {"is_constant": {"b": false}, "frame_name": {"s": "U3RhdGVmdWxQYXJ0aXRpb25lZENhbGwvc2VxdWVudGlhbF8xL2xzdG1fMi9QYXJ0aXRpb25lZENhbGwvd2hpbGU="}, "T": {"type": "DT_FLOAT"}, "parallel_iterations": {"i": "32"}}}, {"name": "StatefulPartitionedCall/sequential_1/lstm_2/PartitionedCall/while/enter/_39", "op": "Enter", "input": ["StatefulPartitionedCall/sequential_1/lstm_2/PartitionedCall/time"], "attr": {"is_constant": {"b": false}, "frame_name": {"s": "U3RhdGVmdWxQYXJ0aXRpb25lZENhbGwvc2VxdWVudGlhbF8xL2xzdG1fMi9QYXJ0aXRpb25lZENhbGwvd2hpbGU="}, "T": {"type": "DT_INT32"}, "parallel_iterations": {"i": "32"}}}, {"name": "StatefulPartitionedCall/sequential_1/lstm_2/PartitionedCall/while/enter/_37", "op": "Enter", "input": ["StatefulPartitionedCall/sequential_1/lstm_2/PartitionedCall/while/loop_counter"], "attr": {"is_constant": {"b": false}, "frame_name": {"s": "U3RhdGVmdWxQYXJ0aXRpb25lZENhbGwvc2VxdWVudGlhbF8xL2xzdG1fMi9QYXJ0aXRpb25lZENhbGwvd2hpbGU="}, "T": {"type": "DT_INT32"}, "parallel_iterations": {"i": "32"}}}, {"name": "StatefulPartitionedCall/sequential_1/lstm_3/PartitionedCall/while/enter/_97", "op": "Enter", "input": ["StatefulPartitionedCall/sequential_1/lstm_3/PartitionedCall/while/loop_counter"], "attr": {"is_constant": {"b": false}, "frame_name": {"s": "U3RhdGVmdWxQYXJ0aXRpb25lZENhbGwvc2VxdWVudGlhbF8xL2xzdG1fMy9QYXJ0aXRpb25lZENhbGwvd2hpbGU="}, "T": {"type": "DT_INT32"}, "parallel_iterations": {"i": "32"}}}, {"name": "StatefulPartitionedCall/sequential_1/lstm_2/Shape", "op": "Shape", "input": ["lstm_2_input"], "attr": {"T": {"type": "DT_FLOAT"}, "out_type": {"type": "DT_INT32"}}, "experimentalType": {"typeId": "TFT_PRODUCT", "args": [{"typeId": "TFT_SHAPE_TENSOR", "args": [{"typeId": "TFT_INT32"}]}]}}, {"name": "StatefulPartitionedCall/sequential_1/lstm_2/PartitionedCall/transpose", "op": "Transpose", "input": ["lstm_2_input", "StatefulPartitionedCall/sequential_1/lstm_2/PartitionedCall/transpose/perm"], "attr": {"Tperm": {"type": "DT_INT32"}, "T": {"type": "DT_FLOAT"}}}, {"name": "StatefulPartitionedCall/sequential_1/lstm_3/PartitionedCall/while/enter/_100", "op": "Enter", "input": ["StatefulPartitionedCall/sequential_1/lstm_3/PartitionedCall/TensorArrayV2_1"], "attr": {"is_constant": {"b": false}, "frame_name": {"s": "U3RhdGVmdWxQYXJ0aXRpb25lZENhbGwvc2VxdWVudGlhbF8xL2xzdG1fMy9QYXJ0aXRpb25lZENhbGwvd2hpbGU="}, "T": {"type": "DT_VARIANT"}, "parallel_iterations": {"i": "32"}}}, {"name": "StatefulPartitionedCall/sequential_1/lstm_3/PartitionedCall/while/merge/_116", "op": "Merge", "input": ["StatefulPartitionedCall/sequential_1/lstm_3/PartitionedCall/while/enter/_105", "StatefulPartitionedCall/sequential_1/lstm_3/PartitionedCall/while/next_iteration/_152"], "attr": {"N": {"i": "2"}, "T": {"type": "DT_FLOAT"}}}, {"name": "StatefulPartitionedCall/sequential_1/lstm_3/PartitionedCall/while/merge/_117", "op": "Merge", "input": ["StatefulPartitionedCall/sequential_1/lstm_3/PartitionedCall/while/enter/_106", "StatefulPartitionedCall/sequential_1/lstm_3/PartitionedCall/while/next_iteration/_153"], "attr": {"N": {"i": "2"}, "T": {"type": "DT_FLOAT"}}}, {"name": "StatefulPartitionedCall/sequential_1/lstm_3/PartitionedCall/while/merge/_118", "op": "Merge", "input": ["StatefulPartitionedCall/sequential_1/lstm_3/PartitionedCall/while/enter/_107", "StatefulPartitionedCall/sequential_1/lstm_3/PartitionedCall/while/next_iteration/_154"], "attr": {"N": {"i": "2"}, "T": {"type": "DT_FLOAT"}}}, {"name": "StatefulPartitionedCall/sequential_1/lstm_3/PartitionedCall/while/merge/_110", "op": "Merge", "input": ["StatefulPartitionedCall/sequential_1/lstm_3/PartitionedCall/while/enter/_99", "StatefulPartitionedCall/sequential_1/lstm_3/PartitionedCall/while/next_iteration/_146"], "attr": {"N": {"i": "2"}, "T": {"type": "DT_INT32"}}}, {"name": "StatefulPartitionedCall/sequential_1/lstm_2/PartitionedCall/while/merge/_56", "op": "Merge", "input": ["StatefulPartitionedCall/sequential_1/lstm_2/PartitionedCall/while/enter/_45", "StatefulPartitionedCall/sequential_1/lstm_2/PartitionedCall/while/next_iteration/_92"], "attr": {"N": {"i": "2"}, "T": {"type": "DT_FLOAT"}}}, {"name": "StatefulPartitionedCall/sequential_1/lstm_2/PartitionedCall/while/merge/_57", "op": "Merge", "input": ["StatefulPartitionedCall/sequential_1/lstm_2/PartitionedCall/while/enter/_46", "StatefulPartitionedCall/sequential_1/lstm_2/PartitionedCall/while/next_iteration/_93"], "attr": {"N": {"i": "2"}, "T": {"type": "DT_FLOAT"}}}, {"name": "StatefulPartitionedCall/sequential_1/lstm_2/PartitionedCall/while/merge/_58", "op": "Merge", "input": ["StatefulPartitionedCall/sequential_1/lstm_2/PartitionedCall/while/enter/_47", "StatefulPartitionedCall/sequential_1/lstm_2/PartitionedCall/while/next_iteration/_94"], "attr": {"N": {"i": "2"}, "T": {"type": "DT_FLOAT"}}}, {"name": "StatefulPartitionedCall/sequential_1/lstm_2/PartitionedCall/while/merge/_50", "op": "Merge", "input": ["StatefulPartitionedCall/sequential_1/lstm_2/PartitionedCall/while/enter/_39", "StatefulPartitionedCall/sequential_1/lstm_2/PartitionedCall/while/next_iteration/_86"], "attr": {"N": {"i": "2"}, "T": {"type": "DT_INT32"}}}, {"name": "StatefulPartitionedCall/sequential_1/lstm_2/PartitionedCall/while/merge/_48", "op": "Merge", "input": ["StatefulPartitionedCall/sequential_1/lstm_2/PartitionedCall/while/enter/_37", "StatefulPartitionedCall/sequential_1/lstm_2/PartitionedCall/while/next_iteration/_84"], "attr": {"N": {"i": "2"}, "_has_manual_control_dependencies": {"b": true}, "T": {"type": "DT_INT32"}}}, {"name": "StatefulPartitionedCall/sequential_1/lstm_3/PartitionedCall/while/merge/_108", "op": "Merge", "input": ["StatefulPartitionedCall/sequential_1/lstm_3/PartitionedCall/while/enter/_97", "StatefulPartitionedCall/sequential_1/lstm_3/PartitionedCall/while/next_iteration/_144"], "attr": {"N": {"i": "2"}, "_has_manual_control_dependencies": {"b": true}, "T": {"type": "DT_INT32"}}}, {"name": "StatefulPartitionedCall/sequential_1/lstm_2/strided_slice", "op": "StridedSlice", "input": ["StatefulPartitionedCall/sequential_1/lstm_2/Shape", "StatefulPartitionedCall/sequential_1/lstm_2/strided_slice/stack", "StatefulPartitionedCall/sequential_1/lstm_2/strided_slice/stack_1", "StatefulPartitionedCall/sequential_1/lstm_2/strided_slice/stack_2"], "attr": {"shrink_axis_mask": {"i": "1"}, "new_axis_mask": {"i": "0"}, "Index": {"type": "DT_INT32"}, "begin_mask": {"i": "0"}, "T": {"type": "DT_INT32"}, "end_mask": {"i": "0"}, "ellipsis_mask": {"i": "0"}}}, {"name": "StatefulPartitionedCall/sequential_1/lstm_2/PartitionedCall/TensorArrayUnstack/TensorListFromTensor", "op": "TensorListFromTensor", "input": ["StatefulPartitionedCall/sequential_1/lstm_2/PartitionedCall/transpose", "StatefulPartitionedCall/sequential_1/lstm_2/PartitionedCall/TensorArrayUnstack/TensorListFromTensor/element_shape"], "attr": {"shape_type": {"type": "DT_INT32"}, "element_dtype": {"type": "DT_FLOAT"}}, "experimentalType": {"typeId": "TFT_PRODUCT", "args": [{"typeId": "TFT_ARRAY", "args": [{"typeId": "TFT_TENSOR", "args": [{"typeId": "TFT_FLOAT"}]}]}]}}, {"name": "StatefulPartitionedCall/sequential_1/lstm_2/PartitionedCall/Shape", "op": "Shape", "input": ["StatefulPartitionedCall/sequential_1/lstm_2/PartitionedCall/transpose"], "attr": {"T": {"type": "DT_FLOAT"}, "out_type": {"type": "DT_INT32"}}, "experimentalType": {"typeId": "TFT_PRODUCT", "args": [{"typeId": "TFT_SHAPE_TENSOR", "args": [{"typeId": "TFT_INT32"}]}]}}, {"name": "StatefulPartitionedCall/sequential_1/lstm_3/PartitionedCall/while/merge/_111", "op": "Merge", "input": ["StatefulPartitionedCall/sequential_1/lstm_3/PartitionedCall/while/enter/_100", "StatefulPartitionedCall/sequential_1/lstm_3/PartitionedCall/while/next_iteration/_147"], "attr": {"N": {"i": "2"}, "T": {"type": "DT_VARIANT"}}}, {"name": "StatefulPartitionedCall/sequential_1/lstm_2/zeros_1/packed", "op": "Pack", "input": ["StatefulPartitionedCall/sequential_1/lstm_2/strided_slice", "StatefulPartitionedCall/sequential_1/lstm_2/zeros_1/packed/1"], "attr": {"N": {"i": "2"}, "axis": {"i": "0"}, "T": {"type": "DT_INT32"}}}, {"name": "StatefulPartitionedCall/sequential_1/lstm_2/zeros/packed", "op": "Pack", "input": ["StatefulPartitionedCall/sequential_1/lstm_2/strided_slice", "StatefulPartitionedCall/sequential_1/lstm_2/zeros/packed/1"], "attr": {"N": {"i": "2"}, "axis": {"i": "0"}, "T": {"type": "DT_INT32"}}}, {"name": "StatefulPartitionedCall/sequential_1/lstm_2/PartitionedCall/while/enter/_44", "op": "Enter", "input": ["StatefulPartitionedCall/sequential_1/lstm_2/PartitionedCall/TensorArrayUnstack/TensorListFromTensor"], "attr": {"is_constant": {"b": false}, "frame_name": {"s": "U3RhdGVmdWxQYXJ0aXRpb25lZENhbGwvc2VxdWVudGlhbF8xL2xzdG1fMi9QYXJ0aXRpb25lZENhbGwvd2hpbGU="}, "T": {"type": "DT_VARIANT"}, "parallel_iterations": {"i": "32"}}}, {"name": "StatefulPartitionedCall/sequential_1/lstm_2/PartitionedCall/strided_slice", "op": "StridedSlice", "input": ["StatefulPartitionedCall/sequential_1/lstm_2/PartitionedCall/Shape", "StatefulPartitionedCall/sequential_1/lstm_2/PartitionedCall/strided_slice/stack", "StatefulPartitionedCall/sequential_1/lstm_2/PartitionedCall/strided_slice/stack_1", "StatefulPartitionedCall/sequential_1/lstm_2/PartitionedCall/strided_slice/stack_2"], "attr": {"shrink_axis_mask": {"i": "1"}, "Index": {"type": "DT_INT32"}, "new_axis_mask": {"i": "0"}, "begin_mask": {"i": "0"}, "T": {"type": "DT_INT32"}, "end_mask": {"i": "0"}, "ellipsis_mask": {"i": "0"}}}, {"name": "StatefulPartitionedCall/sequential_1/lstm_2/zeros_1", "op": "Fill", "input": ["StatefulPartitionedCall/sequential_1/lstm_2/zeros_1/packed", "StatefulPartitionedCall/sequential_1/lstm_2/zeros_1/Const"], "attr": {"T": {"type": "DT_FLOAT"}, "index_type": {"type": "DT_INT32"}}}, {"name": "StatefulPartitionedCall/sequential_1/lstm_2/zeros", "op": "Fill", "input": ["StatefulPartitionedCall/sequential_1/lstm_2/zeros/packed", "StatefulPartitionedCall/sequential_1/lstm_2/zeros/Const"], "attr": {"T": {"type": "DT_FLOAT"}, "index_type": {"type": "DT_INT32"}}}, {"name": "StatefulPartitionedCall/sequential_1/lstm_2/PartitionedCall/while/merge/_55", "op": "Merge", "input": ["StatefulPartitionedCall/sequential_1/lstm_2/PartitionedCall/while/enter/_44", "StatefulPartitionedCall/sequential_1/lstm_2/PartitionedCall/while/next_iteration/_91"], "attr": {"N": {"i": "2"}, "T": {"type": "DT_VARIANT"}}}, {"name": "StatefulPartitionedCall/sequential_1/lstm_2/PartitionedCall/TensorArrayV2_1", "op": "TensorListReserve", "input": ["StatefulPartitionedCall/sequential_1/lstm_2/PartitionedCall/TensorArrayV2_1/element_shape", "StatefulPartitionedCall/sequential_1/lstm_2/PartitionedCall/strided_slice"], "attr": {"shape_type": {"type": "DT_INT32"}, "element_dtype": {"type": "DT_FLOAT"}}, "experimentalType": {"typeId": "TFT_PRODUCT", "args": [{"typeId": "TFT_ARRAY", "args": [{"typeId": "TFT_TENSOR", "args": [{"typeId": "TFT_FLOAT"}]}]}]}}, {"name": "StatefulPartitionedCall/sequential_1/lstm_2/PartitionedCall/while/enter/_43", "op": "Enter", "input": ["StatefulPartitionedCall/sequential_1/lstm_2/PartitionedCall/strided_slice"], "attr": {"is_constant": {"b": false}, "frame_name": {"s": "U3RhdGVmdWxQYXJ0aXRpb25lZENhbGwvc2VxdWVudGlhbF8xL2xzdG1fMi9QYXJ0aXRpb25lZENhbGwvd2hpbGU="}, "T": {"type": "DT_INT32"}, "parallel_iterations": {"i": "32"}}}, {"name": "StatefulPartitionedCall/sequential_1/lstm_2/PartitionedCall/while/enter/_42", "op": "Enter", "input": ["StatefulPartitionedCall/sequential_1/lstm_2/zeros_1"], "attr": {"is_constant": {"b": false}, "frame_name": {"s": "U3RhdGVmdWxQYXJ0aXRpb25lZENhbGwvc2VxdWVudGlhbF8xL2xzdG1fMi9QYXJ0aXRpb25lZENhbGwvd2hpbGU="}, "T": {"type": "DT_FLOAT"}, "parallel_iterations": {"i": "32"}}}, {"name": "StatefulPartitionedCall/sequential_1/lstm_2/PartitionedCall/while/enter/_41", "op": "Enter", "input": ["StatefulPartitionedCall/sequential_1/lstm_2/zeros"], "attr": {"is_constant": {"b": false}, "frame_name": {"s": "U3RhdGVmdWxQYXJ0aXRpb25lZENhbGwvc2VxdWVudGlhbF8xL2xzdG1fMi9QYXJ0aXRpb25lZENhbGwvd2hpbGU="}, "T": {"type": "DT_FLOAT"}, "parallel_iterations": {"i": "32"}}}, {"name": "StatefulPartitionedCall/sequential_1/lstm_2/PartitionedCall/while/enter/_40", "op": "Enter", "input": ["StatefulPartitionedCall/sequential_1/lstm_2/PartitionedCall/TensorArrayV2_1"], "attr": {"is_constant": {"b": false}, "frame_name": {"s": "U3RhdGVmdWxQYXJ0aXRpb25lZENhbGwvc2VxdWVudGlhbF8xL2xzdG1fMi9QYXJ0aXRpb25lZENhbGwvd2hpbGU="}, "T": {"type": "DT_VARIANT"}, "parallel_iterations": {"i": "32"}}}, {"name": "StatefulPartitionedCall/sequential_1/lstm_2/PartitionedCall/while/merge/_54", "op": "Merge", "input": ["StatefulPartitionedCall/sequential_1/lstm_2/PartitionedCall/while/enter/_43", "StatefulPartitionedCall/sequential_1/lstm_2/PartitionedCall/while/next_iteration/_90"], "attr": {"N": {"i": "2"}, "T": {"type": "DT_INT32"}}}, {"name": "StatefulPartitionedCall/sequential_1/lstm_2/PartitionedCall/while/merge/_53", "op": "Merge", "input": ["StatefulPartitionedCall/sequential_1/lstm_2/PartitionedCall/while/enter/_42", "StatefulPartitionedCall/sequential_1/lstm_2/PartitionedCall/while/next_iteration/_89"], "attr": {"N": {"i": "2"}, "T": {"type": "DT_FLOAT"}}}, {"name": "StatefulPartitionedCall/sequential_1/lstm_2/PartitionedCall/while/merge/_52", "op": "Merge", "input": ["StatefulPartitionedCall/sequential_1/lstm_2/PartitionedCall/while/enter/_41", "StatefulPartitionedCall/sequential_1/lstm_2/PartitionedCall/while/next_iteration/_88"], "attr": {"N": {"i": "2"}, "T": {"type": "DT_FLOAT"}}}, {"name": "StatefulPartitionedCall/sequential_1/lstm_2/PartitionedCall/while/merge/_51", "op": "Merge", "input": ["StatefulPartitionedCall/sequential_1/lstm_2/PartitionedCall/while/enter/_40", "StatefulPartitionedCall/sequential_1/lstm_2/PartitionedCall/while/next_iteration/_87"], "attr": {"N": {"i": "2"}, "T": {"type": "DT_VARIANT"}}}, {"name": "StatefulPartitionedCall/sequential_1/lstm_2/PartitionedCall/while/cond/_35/while/Less", "op": "Less", "input": ["StatefulPartitionedCall/sequential_1/lstm_2/PartitionedCall/while/merge/_50", "StatefulPartitionedCall/sequential_1/lstm_2/PartitionedCall/while/merge/_54", "^StatefulPartitionedCall/sequential_1/lstm_2/PartitionedCall/while/merge/_48"], "attr": {"T": {"type": "DT_INT32"}}}, {"name": "StatefulPartitionedCall/sequential_1/lstm_2/PartitionedCall/while/LoopCond/_59", "op": "LoopCond", "input": ["StatefulPartitionedCall/sequential_1/lstm_2/PartitionedCall/while/cond/_35/while/Less"]}, {"name": "StatefulPartitionedCall/sequential_1/lstm_2/PartitionedCall/while/Func/StatefulPartitionedCall/sequential_1/lstm_2/PartitionedCall/input/_15_switch/_65", "op": "Switch", "input": ["StatefulPartitionedCall/sequential_1/lstm_2/PartitionedCall/while/merge/_53", "StatefulPartitionedCall/sequential_1/lstm_2/PartitionedCall/while/LoopCond/_59"], "attr": {"T": {"type": "DT_FLOAT"}}}, {"name": "StatefulPartitionedCall/sequential_1/lstm_2/PartitionedCall/while/StatefulPartitionedCall/sequential_1/lstm_2/PartitionedCall/TensorArrayUnstack/TensorListFromTensor_switch/_67", "op": "Switch", "input": ["StatefulPartitionedCall/sequential_1/lstm_2/PartitionedCall/while/merge/_55", "StatefulPartitionedCall/sequential_1/lstm_2/PartitionedCall/while/LoopCond/_59"], "attr": {"T": {"type": "DT_VARIANT"}}}, {"name": "StatefulPartitionedCall/sequential_1/lstm_2/PartitionedCall/while/Func/StatefulPartitionedCall/sequential_1/lstm_2/PartitionedCall/input/_16_switch/_68", "op": "Switch", "input": ["StatefulPartitionedCall/sequential_1/lstm_2/PartitionedCall/while/merge/_56", "StatefulPartitionedCall/sequential_1/lstm_2/PartitionedCall/while/LoopCond/_59"], "attr": {"T": {"type": "DT_FLOAT"}}}, {"name": "StatefulPartitionedCall/sequential_1/lstm_2/PartitionedCall/while/Func/StatefulPartitionedCall/sequential_1/lstm_2/PartitionedCall/input/_14_switch/_64", "op": "Switch", "input": ["StatefulPartitionedCall/sequential_1/lstm_2/PartitionedCall/while/merge/_52", "StatefulPartitionedCall/sequential_1/lstm_2/PartitionedCall/while/LoopCond/_59"], "attr": {"T": {"type": "DT_FLOAT"}}}, {"name": "StatefulPartitionedCall/sequential_1/lstm_2/PartitionedCall/while/Func/StatefulPartitionedCall/sequential_1/lstm_2/PartitionedCall/input/_17_switch/_69", "op": "Switch", "input": ["StatefulPartitionedCall/sequential_1/lstm_2/PartitionedCall/while/merge/_57", "StatefulPartitionedCall/sequential_1/lstm_2/PartitionedCall/while/LoopCond/_59"], "attr": {"T": {"type": "DT_FLOAT"}}}, {"name": "StatefulPartitionedCall/sequential_1/lstm_2/PartitionedCall/while/Func/StatefulPartitionedCall/sequential_1/lstm_2/PartitionedCall/input/_18_switch/_70", "op": "Switch", "input": ["StatefulPartitionedCall/sequential_1/lstm_2/PartitionedCall/while/merge/_58", "StatefulPartitionedCall/sequential_1/lstm_2/PartitionedCall/while/LoopCond/_59"], "attr": {"T": {"type": "DT_FLOAT"}}}, {"name": "StatefulPartitionedCall/sequential_1/lstm_2/PartitionedCall/while/StatefulPartitionedCall/sequential_1/lstm_2/PartitionedCall/time_switch/_62", "op": "Switch", "input": ["StatefulPartitionedCall/sequential_1/lstm_2/PartitionedCall/while/merge/_50", "StatefulPartitionedCall/sequential_1/lstm_2/PartitionedCall/while/LoopCond/_59"], "attr": {"T": {"type": "DT_INT32"}}}, {"name": "StatefulPartitionedCall/sequential_1/lstm_2/PartitionedCall/while/StatefulPartitionedCall/sequential_1/lstm_2/PartitionedCall/while/loop_counter_switch/_60", "op": "Switch", "input": ["StatefulPartitionedCall/sequential_1/lstm_2/PartitionedCall/while/merge/_48", "StatefulPartitionedCall/sequential_1/lstm_2/PartitionedCall/while/LoopCond/_59"], "attr": {"T": {"type": "DT_INT32"}}}, {"name": "StatefulPartitionedCall/sequential_1/lstm_2/PartitionedCall/while/StatefulPartitionedCall/sequential_1/lstm_2/PartitionedCall/TensorArrayV2_1_switch/_63", "op": "Switch", "input": ["StatefulPartitionedCall/sequential_1/lstm_2/PartitionedCall/while/merge/_51", "StatefulPartitionedCall/sequential_1/lstm_2/PartitionedCall/while/LoopCond/_59"], "attr": {"T": {"type": "DT_VARIANT"}}}, {"name": "StatefulPartitionedCall/sequential_1/lstm_2/PartitionedCall/while/StatefulPartitionedCall/sequential_1/lstm_2/PartitionedCall/strided_slice_switch/_66", "op": "Switch", "input": ["StatefulPartitionedCall/sequential_1/lstm_2/PartitionedCall/while/merge/_54", "StatefulPartitionedCall/sequential_1/lstm_2/PartitionedCall/while/LoopCond/_59"], "attr": {"T": {"type": "DT_INT32"}}}, {"name": "StatefulPartitionedCall/sequential_1/lstm_2/PartitionedCall/while/loop_body_control/_71", "op": "Identity", "input": ["StatefulPartitionedCall/sequential_1/lstm_2/PartitionedCall/while/StatefulPartitionedCall/sequential_1/lstm_2/PartitionedCall/while/loop_counter_switch/_60:1"], "attr": {"_has_manual_control_dependencies": {"b": true}, "T": {"type": "DT_INT32"}}}, {"name": "StatefulPartitionedCall/sequential_1/lstm_2/PartitionedCall/while/exit/_75", "op": "Exit", "input": ["StatefulPartitionedCall/sequential_1/lstm_2/PartitionedCall/while/StatefulPartitionedCall/sequential_1/lstm_2/PartitionedCall/TensorArrayV2_1_switch/_63"], "attr": {"T": {"type": "DT_VARIANT"}}}, {"name": "StatefulPartitionedCall/sequential_1/lstm_2/PartitionedCall/while/body/_36/while/split/split_dim", "op": "Const", "input": ["^StatefulPartitionedCall/sequential_1/lstm_2/PartitionedCall/while/loop_body_control/_71"], "attr": {"value": {"tensor": {"dtype": "DT_INT32", "tensorShape": {}}}, "dtype": {"type": "DT_INT32"}}}, {"name": "StatefulPartitionedCall/sequential_1/lstm_2/PartitionedCall/while/next_iteration/_91", "op": "NextIteration", "input": ["StatefulPartitionedCall/sequential_1/lstm_2/PartitionedCall/while/StatefulPartitionedCall/sequential_1/lstm_2/PartitionedCall/TensorArrayUnstack/TensorListFromTensor_switch/_67:1", "^StatefulPartitionedCall/sequential_1/lstm_2/PartitionedCall/while/loop_body_control/_71"], "attr": {"T": {"type": "DT_VARIANT"}}}, {"name": "StatefulPartitionedCall/sequential_1/lstm_2/PartitionedCall/while/body/_36/while/TensorArrayV2Read/TensorListGetItem/element_shape", "op": "Const", "input": ["^StatefulPartitionedCall/sequential_1/lstm_2/PartitionedCall/while/loop_body_control/_71"], "attr": {"value": {"tensor": {"dtype": "DT_INT32", "tensorShape": {"dim": [{"size": "2"}]}}}, "dtype": {"type": "DT_INT32"}}}, {"name": "StatefulPartitionedCall/sequential_1/lstm_2/PartitionedCall/while/next_iteration/_92", "op": "NextIteration", "input": ["StatefulPartitionedCall/sequential_1/lstm_2/PartitionedCall/while/Func/StatefulPartitionedCall/sequential_1/lstm_2/PartitionedCall/input/_16_switch/_68:1", "^StatefulPartitionedCall/sequential_1/lstm_2/PartitionedCall/while/loop_body_control/_71"], "attr": {"T": {"type": "DT_FLOAT"}}}, {"name": "StatefulPartitionedCall/sequential_1/lstm_2/PartitionedCall/while/next_iteration/_93", "op": "NextIteration", "input": ["StatefulPartitionedCall/sequential_1/lstm_2/PartitionedCall/while/Func/StatefulPartitionedCall/sequential_1/lstm_2/PartitionedCall/input/_17_switch/_69:1", "^StatefulPartitionedCall/sequential_1/lstm_2/PartitionedCall/while/loop_body_control/_71"], "attr": {"T": {"type": "DT_FLOAT"}}}, {"name": "StatefulPartitionedCall/sequential_1/lstm_2/PartitionedCall/while/body/_36/while/MatMul_1", "op": "MatMul", "input": ["StatefulPartitionedCall/sequential_1/lstm_2/PartitionedCall/while/Func/StatefulPartitionedCall/sequential_1/lstm_2/PartitionedCall/input/_14_switch/_64:1", "StatefulPartitionedCall/sequential_1/lstm_2/PartitionedCall/while/Func/StatefulPartitionedCall/sequential_1/lstm_2/PartitionedCall/input/_17_switch/_69:1", "^StatefulPartitionedCall/sequential_1/lstm_2/PartitionedCall/while/loop_body_control/_71"], "device": "/device:CPU:0", "attr": {"grad_a": {"b": false}, "transpose_a": {"b": false}, "T": {"type": "DT_FLOAT"}, "grad_b": {"b": false}, "transpose_b": {"b": false}}}, {"name": "StatefulPartitionedCall/sequential_1/lstm_2/PartitionedCall/while/next_iteration/_94", "op": "NextIteration", "input": ["StatefulPartitionedCall/sequential_1/lstm_2/PartitionedCall/while/Func/StatefulPartitionedCall/sequential_1/lstm_2/PartitionedCall/input/_18_switch/_70:1", "^StatefulPartitionedCall/sequential_1/lstm_2/PartitionedCall/while/loop_body_control/_71"], "attr": {"T": {"type": "DT_FLOAT"}}}, {"name": "Func/StatefulPartitionedCall/sequential_1/lstm_2/PartitionedCall/while/body/_36/input/_171", "op": "Identity", "input": ["StatefulPartitionedCall/sequential_1/lstm_2/PartitionedCall/while/StatefulPartitionedCall/sequential_1/lstm_2/PartitionedCall/time_switch/_62:1", "^StatefulPartitionedCall/sequential_1/lstm_2/PartitionedCall/while/loop_body_control/_71"], "attr": {"T": {"type": "DT_INT32"}}}, {"name": "StatefulPartitionedCall/sequential_1/lstm_2/PartitionedCall/while/body/_36/while/add_2/y", "op": "Const", "input": ["^StatefulPartitionedCall/sequential_1/lstm_2/PartitionedCall/while/loop_body_control/_71"], "attr": {"value": {"tensor": {"dtype": "DT_INT32", "tensorShape": {}}}, "dtype": {"type": "DT_INT32"}}}, {"name": "StatefulPartitionedCall/sequential_1/lstm_2/PartitionedCall/while/body/_36/while/add_3/y", "op": "Const", "input": ["^StatefulPartitionedCall/sequential_1/lstm_2/PartitionedCall/while/loop_body_control/_71"], "attr": {"value": {"tensor": {"dtype": "DT_INT32", "tensorShape": {}}}, "dtype": {"type": "DT_INT32"}}}, {"name": "StatefulPartitionedCall/sequential_1/lstm_2/PartitionedCall/while/next_iteration/_90", "op": "NextIteration", "input": ["StatefulPartitionedCall/sequential_1/lstm_2/PartitionedCall/while/StatefulPartitionedCall/sequential_1/lstm_2/PartitionedCall/strided_slice_switch/_66:1", "^StatefulPartitionedCall/sequential_1/lstm_2/PartitionedCall/while/loop_body_control/_71"], "attr": {"T": {"type": "DT_INT32"}}}, {"name": "StatefulPartitionedCall/sequential_1/lstm_2/PartitionedCall/TensorArrayV2Stack/TensorListStack", "op": "TensorListStack", "input": ["StatefulPartitionedCall/sequential_1/lstm_2/PartitionedCall/while/exit/_75", "StatefulPartitionedCall/sequential_1/lstm_2/PartitionedCall/TensorArrayV2Stack/TensorListStack/element_shape"], "attr": {"num_elements": {"i": "-1"}, "element_dtype": {"type": "DT_FLOAT"}}}, {"name": "StatefulPartitionedCall/sequential_1/lstm_2/PartitionedCall/while/body/_36/while/TensorArrayV2Read/TensorListGetItem", "op": "TensorListGetItem", "input": ["StatefulPartitionedCall/sequential_1/lstm_2/PartitionedCall/while/StatefulPartitionedCall/sequential_1/lstm_2/PartitionedCall/TensorArrayUnstack/TensorListFromTensor_switch/_67:1", "Func/StatefulPartitionedCall/sequential_1/lstm_2/PartitionedCall/while/body/_36/input/_171", "StatefulPartitionedCall/sequential_1/lstm_2/PartitionedCall/while/body/_36/while/TensorArrayV2Read/TensorListGetItem/element_shape"], "attr": {"element_dtype": {"type": "DT_FLOAT"}}}, {"name": "StatefulPartitionedCall/sequential_1/lstm_2/PartitionedCall/while/body/_36/while/add_2", "op": "AddV2", "input": ["Func/StatefulPartitionedCall/sequential_1/lstm_2/PartitionedCall/while/body/_36/input/_171", "StatefulPartitionedCall/sequential_1/lstm_2/PartitionedCall/while/body/_36/while/add_2/y"], "attr": {"T": {"type": "DT_INT32"}}}, {"name": "StatefulPartitionedCall/sequential_1/lstm_2/PartitionedCall/while/body/_36/while/add_3", "op": "AddV2", "input": ["StatefulPartitionedCall/sequential_1/lstm_2/PartitionedCall/while/StatefulPartitionedCall/sequential_1/lstm_2/PartitionedCall/while/loop_counter_switch/_60:1", "StatefulPartitionedCall/sequential_1/lstm_2/PartitionedCall/while/body/_36/while/add_3/y"], "attr": {"T": {"type": "DT_INT32"}}}, {"name": "StatefulPartitionedCall/sequential_1/lstm_3/PartitionedCall/TensorArrayUnstack/TensorListFromTensor", "op": "TensorListFromTensor", "input": ["StatefulPartitionedCall/sequential_1/lstm_2/PartitionedCall/TensorArrayV2Stack/TensorListStack", "StatefulPartitionedCall/sequential_1/lstm_3/PartitionedCall/TensorArrayUnstack/TensorListFromTensor/element_shape"], "attr": {"shape_type": {"type": "DT_INT32"}, "element_dtype": {"type": "DT_FLOAT"}}, "experimentalType": {"typeId": "TFT_PRODUCT", "args": [{"typeId": "TFT_ARRAY", "args": [{"typeId": "TFT_TENSOR", "args": [{"typeId": "TFT_FLOAT"}]}]}]}}, {"name": "StatefulPartitionedCall/sequential_1/lstm_2/PartitionedCall/transpose_1", "op": "Transpose", "input": ["StatefulPartitionedCall/sequential_1/lstm_2/PartitionedCall/TensorArrayV2Stack/TensorListStack", "StatefulPartitionedCall/sequential_1/lstm_2/PartitionedCall/transpose_1/perm"], "attr": {"Tperm": {"type": "DT_INT32"}, "T": {"type": "DT_FLOAT"}}}, {"name": "StatefulPartitionedCall/sequential_1/lstm_3/PartitionedCall/Shape", "op": "Shape", "input": ["StatefulPartitionedCall/sequential_1/lstm_2/PartitionedCall/TensorArrayV2Stack/TensorListStack"], "attr": {"T": {"type": "DT_FLOAT"}, "out_type": {"type": "DT_INT32"}}, "experimentalType": {"typeId": "TFT_PRODUCT", "args": [{"typeId": "TFT_SHAPE_TENSOR", "args": [{"typeId": "TFT_INT32"}]}]}}, {"name": "StatefulPartitionedCall/sequential_1/lstm_2/PartitionedCall/while/body/_36/while/add", "op": "_FusedMatMul", "input": ["StatefulPartitionedCall/sequential_1/lstm_2/PartitionedCall/while/body/_36/while/TensorArrayV2Read/TensorListGetItem", "StatefulPartitionedCall/sequential_1/lstm_2/PartitionedCall/while/Func/StatefulPartitionedCall/sequential_1/lstm_2/PartitionedCall/input/_16_switch/_68:1", "StatefulPartitionedCall/sequential_1/lstm_2/PartitionedCall/while/body/_36/while/MatMul_1"], "device": "/device:CPU:0", "attr": {"transpose_a": {"b": false}, "transpose_b": {"b": false}, "fused_ops": {"list": {"s": ["Qmlhc0FkZA=="]}}, "num_args": {"i": "1"}, "leakyrelu_alpha": {"f": 0.2}, "epsilon": {"f": 0.0}, "T": {"type": "DT_FLOAT"}}}, {"name": "StatefulPartitionedCall/sequential_1/lstm_2/PartitionedCall/while/next_iteration/_86", "op": "NextIteration", "input": ["StatefulPartitionedCall/sequential_1/lstm_2/PartitionedCall/while/body/_36/while/add_2", "^StatefulPartitionedCall/sequential_1/lstm_2/PartitionedCall/while/loop_body_control/_71"], "attr": {"T": {"type": "DT_INT32"}}}, {"name": "StatefulPartitionedCall/sequential_1/lstm_2/PartitionedCall/while/next_iteration/_84", "op": "NextIteration", "input": ["StatefulPartitionedCall/sequential_1/lstm_2/PartitionedCall/while/body/_36/while/add_3", "^StatefulPartitionedCall/sequential_1/lstm_2/PartitionedCall/while/loop_body_control/_71"], "attr": {"T": {"type": "DT_INT32"}}}, {"name": "StatefulPartitionedCall/sequential_1/lstm_3/PartitionedCall/while/enter/_104", "op": "Enter", "input": ["StatefulPartitionedCall/sequential_1/lstm_3/PartitionedCall/TensorArrayUnstack/TensorListFromTensor"], "attr": {"is_constant": {"b": false}, "frame_name": {"s": "U3RhdGVmdWxQYXJ0aXRpb25lZENhbGwvc2VxdWVudGlhbF8xL2xzdG1fMy9QYXJ0aXRpb25lZENhbGwvd2hpbGU="}, "T": {"type": "DT_VARIANT"}, "parallel_iterations": {"i": "32"}}}, {"name": "StatefulPartitionedCall/sequential_1/lstm_3/Shape", "op": "Shape", "input": ["StatefulPartitionedCall/sequential_1/lstm_2/PartitionedCall/transpose_1"], "attr": {"T": {"type": "DT_FLOAT"}, "out_type": {"type": "DT_INT32"}}, "experimentalType": {"typeId": "TFT_PRODUCT", "args": [{"typeId": "TFT_SHAPE_TENSOR", "args": [{"typeId": "TFT_INT32"}]}]}}, {"name": "StatefulPartitionedCall/sequential_1/lstm_3/PartitionedCall/strided_slice", "op": "StridedSlice", "input": ["StatefulPartitionedCall/sequential_1/lstm_3/PartitionedCall/Shape", "StatefulPartitionedCall/sequential_1/lstm_3/PartitionedCall/strided_slice/stack", "StatefulPartitionedCall/sequential_1/lstm_3/PartitionedCall/strided_slice/stack_1", "StatefulPartitionedCall/sequential_1/lstm_3/PartitionedCall/strided_slice/stack_2"], "attr": {"shrink_axis_mask": {"i": "1"}, "Index": {"type": "DT_INT32"}, "new_axis_mask": {"i": "0"}, "begin_mask": {"i": "0"}, "T": {"type": "DT_INT32"}, "end_mask": {"i": "0"}, "ellipsis_mask": {"i": "0"}}}, {"name": "StatefulPartitionedCall/sequential_1/lstm_2/PartitionedCall/while/body/_36/while/BiasAdd", "op": "BiasAdd", "input": ["StatefulPartitionedCall/sequential_1/lstm_2/PartitionedCall/while/body/_36/while/add", "StatefulPartitionedCall/sequential_1/lstm_2/PartitionedCall/while/Func/StatefulPartitionedCall/sequential_1/lstm_2/PartitionedCall/input/_18_switch/_70:1"], "attr": {"data_format": {"s": "TkhXQw=="}, "T": {"type": "DT_FLOAT"}}}, {"name": "StatefulPartitionedCall/sequential_1/lstm_3/PartitionedCall/while/merge/_115", "op": "Merge", "input": ["StatefulPartitionedCall/sequential_1/lstm_3/PartitionedCall/while/enter/_104", "StatefulPartitionedCall/sequential_1/lstm_3/PartitionedCall/while/next_iteration/_151"], "attr": {"N": {"i": "2"}, "T": {"type": "DT_VARIANT"}}}, {"name": "StatefulPartitionedCall/sequential_1/lstm_3/strided_slice", "op": "StridedSlice", "input": ["StatefulPartitionedCall/sequential_1/lstm_3/Shape", "StatefulPartitionedCall/sequential_1/lstm_3/strided_slice/stack", "StatefulPartitionedCall/sequential_1/lstm_3/strided_slice/stack_1", "StatefulPartitionedCall/sequential_1/lstm_3/strided_slice/stack_2"], "attr": {"shrink_axis_mask": {"i": "1"}, "new_axis_mask": {"i": "0"}, "Index": {"type": "DT_INT32"}, "begin_mask": {"i": "0"}, "end_mask": {"i": "0"}, "T": {"type": "DT_INT32"}, "ellipsis_mask": {"i": "0"}}}, {"name": "StatefulPartitionedCall/sequential_1/lstm_3/PartitionedCall/while/enter/_103", "op": "Enter", "input": ["StatefulPartitionedCall/sequential_1/lstm_3/PartitionedCall/strided_slice"], "attr": {"is_constant": {"b": false}, "frame_name": {"s": "U3RhdGVmdWxQYXJ0aXRpb25lZENhbGwvc2VxdWVudGlhbF8xL2xzdG1fMy9QYXJ0aXRpb25lZENhbGwvd2hpbGU="}, "T": {"type": "DT_INT32"}, "parallel_iterations": {"i": "32"}}}, {"name": "StatefulPartitionedCall/sequential_1/lstm_2/PartitionedCall/while/body/_36/while/split", "op": "Split", "input": ["StatefulPartitionedCall/sequential_1/lstm_2/PartitionedCall/while/body/_36/while/split/split_dim", "StatefulPartitionedCall/sequential_1/lstm_2/PartitionedCall/while/body/_36/while/BiasAdd"], "attr": {"num_split": {"i": "4"}, "T": {"type": "DT_FLOAT"}}}, {"name": "StatefulPartitionedCall/sequential_1/lstm_3/zeros_1/packed", "op": "Pack", "input": ["StatefulPartitionedCall/sequential_1/lstm_3/strided_slice", "StatefulPartitionedCall/sequential_1/lstm_3/zeros_1/packed/1"], "attr": {"N": {"i": "2"}, "axis": {"i": "0"}, "T": {"type": "DT_INT32"}}}, {"name": "StatefulPartitionedCall/sequential_1/lstm_3/zeros/packed", "op": "Pack", "input": ["StatefulPartitionedCall/sequential_1/lstm_3/strided_slice", "StatefulPartitionedCall/sequential_1/lstm_3/zeros/packed/1"], "attr": {"N": {"i": "2"}, "axis": {"i": "0"}, "T": {"type": "DT_INT32"}}}, {"name": "StatefulPartitionedCall/sequential_1/lstm_3/PartitionedCall/while/merge/_114", "op": "Merge", "input": ["StatefulPartitionedCall/sequential_1/lstm_3/PartitionedCall/while/enter/_103", "StatefulPartitionedCall/sequential_1/lstm_3/PartitionedCall/while/next_iteration/_150"], "attr": {"N": {"i": "2"}, "T": {"type": "DT_INT32"}}}, {"name": "StatefulPartitionedCall/sequential_1/lstm_2/PartitionedCall/while/body/_36/while/Sigmoid", "op": "Sigmoid", "input": ["StatefulPartitionedCall/sequential_1/lstm_2/PartitionedCall/while/body/_36/while/split"], "attr": {"T": {"type": "DT_FLOAT"}}}, {"name": "StatefulPartitionedCall/sequential_1/lstm_2/PartitionedCall/while/body/_36/while/Sigmoid_1", "op": "Sigmoid", "input": ["StatefulPartitionedCall/sequential_1/lstm_2/PartitionedCall/while/body/_36/while/split:1"], "attr": {"T": {"type": "DT_FLOAT"}}}, {"name": "StatefulPartitionedCall/sequential_1/lstm_2/PartitionedCall/while/body/_36/while/Tanh", "op": "Tanh", "input": ["StatefulPartitionedCall/sequential_1/lstm_2/PartitionedCall/while/body/_36/while/split:2"], "attr": {"T": {"type": "DT_FLOAT"}}}, {"name": "StatefulPartitionedCall/sequential_1/lstm_2/PartitionedCall/while/body/_36/while/Sigmoid_2", "op": "Sigmoid", "input": ["StatefulPartitionedCall/sequential_1/lstm_2/PartitionedCall/while/body/_36/while/split:3"], "attr": {"T": {"type": "DT_FLOAT"}}}, {"name": "StatefulPartitionedCall/sequential_1/lstm_3/zeros_1", "op": "Fill", "input": ["StatefulPartitionedCall/sequential_1/lstm_3/zeros_1/packed", "StatefulPartitionedCall/sequential_1/lstm_3/zeros_1/Const"], "attr": {"T": {"type": "DT_FLOAT"}, "index_type": {"type": "DT_INT32"}}}, {"name": "StatefulPartitionedCall/sequential_1/lstm_3/zeros", "op": "Fill", "input": ["StatefulPartitionedCall/sequential_1/lstm_3/zeros/packed", "StatefulPartitionedCall/sequential_1/lstm_3/zeros/Const"], "attr": {"T": {"type": "DT_FLOAT"}, "index_type": {"type": "DT_INT32"}}}, {"name": "StatefulPartitionedCall/sequential_1/lstm_3/PartitionedCall/while/cond/_95/while/Less", "op": "Less", "input": ["StatefulPartitionedCall/sequential_1/lstm_3/PartitionedCall/while/merge/_110", "StatefulPartitionedCall/sequential_1/lstm_3/PartitionedCall/while/merge/_114", "^StatefulPartitionedCall/sequential_1/lstm_3/PartitionedCall/while/merge/_108"], "attr": {"T": {"type": "DT_INT32"}}}, {"name": "StatefulPartitionedCall/sequential_1/lstm_2/PartitionedCall/while/body/_36/while/mul", "op": "Mul", "input": ["StatefulPartitionedCall/sequential_1/lstm_2/PartitionedCall/while/body/_36/while/Sigmoid_1", "StatefulPartitionedCall/sequential_1/lstm_2/PartitionedCall/while/Func/StatefulPartitionedCall/sequential_1/lstm_2/PartitionedCall/input/_15_switch/_65:1"], "attr": {"T": {"type": "DT_FLOAT"}}}, {"name": "StatefulPartitionedCall/sequential_1/lstm_2/PartitionedCall/while/body/_36/while/mul_1", "op": "Mul", "input": ["StatefulPartitionedCall/sequential_1/lstm_2/PartitionedCall/while/body/_36/while/Sigmoid", "StatefulPartitionedCall/sequential_1/lstm_2/PartitionedCall/while/body/_36/while/Tanh"], "attr": {"T": {"type": "DT_FLOAT"}}}, {"name": "StatefulPartitionedCall/sequential_1/lstm_3/PartitionedCall/while/enter/_102", "op": "Enter", "input": ["StatefulPartitionedCall/sequential_1/lstm_3/zeros_1"], "attr": {"is_constant": {"b": false}, "frame_name": {"s": "U3RhdGVmdWxQYXJ0aXRpb25lZENhbGwvc2VxdWVudGlhbF8xL2xzdG1fMy9QYXJ0aXRpb25lZENhbGwvd2hpbGU="}, "T": {"type": "DT_FLOAT"}, "parallel_iterations": {"i": "32"}}}, {"name": "StatefulPartitionedCall/sequential_1/lstm_3/PartitionedCall/while/enter/_101", "op": "Enter", "input": ["StatefulPartitionedCall/sequential_1/lstm_3/zeros"], "attr": {"is_constant": {"b": false}, "frame_name": {"s": "U3RhdGVmdWxQYXJ0aXRpb25lZENhbGwvc2VxdWVudGlhbF8xL2xzdG1fMy9QYXJ0aXRpb25lZENhbGwvd2hpbGU="}, "T": {"type": "DT_FLOAT"}, "parallel_iterations": {"i": "32"}}}, {"name": "StatefulPartitionedCall/sequential_1/lstm_3/PartitionedCall/while/LoopCond/_119", "op": "LoopCond", "input": ["StatefulPartitionedCall/sequential_1/lstm_3/PartitionedCall/while/cond/_95/while/Less"]}, {"name": "StatefulPartitionedCall/sequential_1/lstm_2/PartitionedCall/while/body/_36/while/add_1", "op": "AddV2", "input": ["StatefulPartitionedCall/sequential_1/lstm_2/PartitionedCall/while/body/_36/while/mul", "StatefulPartitionedCall/sequential_1/lstm_2/PartitionedCall/while/body/_36/while/mul_1"], "attr": {"T": {"type": "DT_FLOAT"}}}, {"name": "StatefulPartitionedCall/sequential_1/lstm_3/PartitionedCall/while/merge/_113", "op": "Merge", "input": ["StatefulPartitionedCall/sequential_1/lstm_3/PartitionedCall/while/enter/_102", "StatefulPartitionedCall/sequential_1/lstm_3/PartitionedCall/while/next_iteration/_149"], "attr": {"N": {"i": "2"}, "T": {"type": "DT_FLOAT"}}}, {"name": "StatefulPartitionedCall/sequential_1/lstm_3/PartitionedCall/while/merge/_112", "op": "Merge", "input": ["StatefulPartitionedCall/sequential_1/lstm_3/PartitionedCall/while/enter/_101", "StatefulPartitionedCall/sequential_1/lstm_3/PartitionedCall/while/next_iteration/_148"], "attr": {"N": {"i": "2"}, "T": {"type": "DT_FLOAT"}}}, {"name": "StatefulPartitionedCall/sequential_1/lstm_3/PartitionedCall/while/StatefulPartitionedCall/sequential_1/lstm_3/PartitionedCall/TensorArrayUnstack/TensorListFromTensor_switch/_127", "op": "Switch", "input": ["StatefulPartitionedCall/sequential_1/lstm_3/PartitionedCall/while/merge/_115", "StatefulPartitionedCall/sequential_1/lstm_3/PartitionedCall/while/LoopCond/_119"], "attr": {"T": {"type": "DT_VARIANT"}}}, {"name": "StatefulPartitionedCall/sequential_1/lstm_3/PartitionedCall/while/Func/StatefulPartitionedCall/sequential_1/lstm_3/PartitionedCall/input/_27_switch/_128", "op": "Switch", "input": ["StatefulPartitionedCall/sequential_1/lstm_3/PartitionedCall/while/merge/_116", "StatefulPartitionedCall/sequential_1/lstm_3/PartitionedCall/while/LoopCond/_119"], "attr": {"T": {"type": "DT_FLOAT"}}}, {"name": "StatefulPartitionedCall/sequential_1/lstm_3/PartitionedCall/while/Func/StatefulPartitionedCall/sequential_1/lstm_3/PartitionedCall/input/_28_switch/_129", "op": "Switch", "input": ["StatefulPartitionedCall/sequential_1/lstm_3/PartitionedCall/while/merge/_117", "StatefulPartitionedCall/sequential_1/lstm_3/PartitionedCall/while/LoopCond/_119"], "attr": {"T": {"type": "DT_FLOAT"}}}, {"name": "StatefulPartitionedCall/sequential_1/lstm_3/PartitionedCall/while/Func/StatefulPartitionedCall/sequential_1/lstm_3/PartitionedCall/input/_29_switch/_130", "op": "Switch", "input": ["StatefulPartitionedCall/sequential_1/lstm_3/PartitionedCall/while/merge/_118", "StatefulPartitionedCall/sequential_1/lstm_3/PartitionedCall/while/LoopCond/_119"], "attr": {"T": {"type": "DT_FLOAT"}}}, {"name": "StatefulPartitionedCall/sequential_1/lstm_3/PartitionedCall/while/StatefulPartitionedCall/sequential_1/lstm_3/PartitionedCall/time_switch/_122", "op": "Switch", "input": ["StatefulPartitionedCall/sequential_1/lstm_3/PartitionedCall/while/merge/_110", "StatefulPartitionedCall/sequential_1/lstm_3/PartitionedCall/while/LoopCond/_119"], "attr": {"T": {"type": "DT_INT32"}}}, {"name": "StatefulPartitionedCall/sequential_1/lstm_3/PartitionedCall/while/StatefulPartitionedCall/sequential_1/lstm_3/PartitionedCall/while/loop_counter_switch/_120", "op": "Switch", "input": ["StatefulPartitionedCall/sequential_1/lstm_3/PartitionedCall/while/merge/_108", "StatefulPartitionedCall/sequential_1/lstm_3/PartitionedCall/while/LoopCond/_119"], "attr": {"T": {"type": "DT_INT32"}}}, {"name": "StatefulPartitionedCall/sequential_1/lstm_3/PartitionedCall/while/StatefulPartitionedCall/sequential_1/lstm_3/PartitionedCall/TensorArrayV2_1_switch/_123", "op": "Switch", "input": ["StatefulPartitionedCall/sequential_1/lstm_3/PartitionedCall/while/merge/_111", "StatefulPartitionedCall/sequential_1/lstm_3/PartitionedCall/while/LoopCond/_119"], "attr": {"T": {"type": "DT_VARIANT"}}}, {"name": "StatefulPartitionedCall/sequential_1/lstm_3/PartitionedCall/while/StatefulPartitionedCall/sequential_1/lstm_3/PartitionedCall/strided_slice_switch/_126", "op": "Switch", "input": ["StatefulPartitionedCall/sequential_1/lstm_3/PartitionedCall/while/merge/_114", "StatefulPartitionedCall/sequential_1/lstm_3/PartitionedCall/while/LoopCond/_119"], "attr": {"T": {"type": "DT_INT32"}}}, {"name": "StatefulPartitionedCall/sequential_1/lstm_2/PartitionedCall/while/body/_36/while/Tanh_1", "op": "Tanh", "input": ["StatefulPartitionedCall/sequential_1/lstm_2/PartitionedCall/while/body/_36/while/add_1"], "attr": {"T": {"type": "DT_FLOAT"}}}, {"name": "StatefulPartitionedCall/sequential_1/lstm_2/PartitionedCall/while/next_iteration/_89", "op": "NextIteration", "input": ["StatefulPartitionedCall/sequential_1/lstm_2/PartitionedCall/while/body/_36/while/add_1", "^StatefulPartitionedCall/sequential_1/lstm_2/PartitionedCall/while/loop_body_control/_71"], "attr": {"T": {"type": "DT_FLOAT"}}}, {"name": "StatefulPartitionedCall/sequential_1/lstm_3/PartitionedCall/while/Func/StatefulPartitionedCall/sequential_1/lstm_3/PartitionedCall/input/_26_switch/_125", "op": "Switch", "input": ["StatefulPartitionedCall/sequential_1/lstm_3/PartitionedCall/while/merge/_113", "StatefulPartitionedCall/sequential_1/lstm_3/PartitionedCall/while/LoopCond/_119"], "attr": {"T": {"type": "DT_FLOAT"}}}, {"name": "StatefulPartitionedCall/sequential_1/lstm_3/PartitionedCall/while/Func/StatefulPartitionedCall/sequential_1/lstm_3/PartitionedCall/input/_25_switch/_124", "op": "Switch", "input": ["StatefulPartitionedCall/sequential_1/lstm_3/PartitionedCall/while/merge/_112", "StatefulPartitionedCall/sequential_1/lstm_3/PartitionedCall/while/LoopCond/_119"], "attr": {"T": {"type": "DT_FLOAT"}}}, {"name": "StatefulPartitionedCall/sequential_1/lstm_3/PartitionedCall/while/loop_body_control/_131", "op": "Identity", "input": ["StatefulPartitionedCall/sequential_1/lstm_3/PartitionedCall/while/StatefulPartitionedCall/sequential_1/lstm_3/PartitionedCall/while/loop_counter_switch/_120:1"], "attr": {"_has_manual_control_dependencies": {"b": true}, "T": {"type": "DT_INT32"}}}, {"name": "StatefulPartitionedCall/sequential_1/lstm_3/PartitionedCall/while/exit/_135", "op": "Exit", "input": ["StatefulPartitionedCall/sequential_1/lstm_3/PartitionedCall/while/StatefulPartitionedCall/sequential_1/lstm_3/PartitionedCall/TensorArrayV2_1_switch/_123"], "attr": {"T": {"type": "DT_VARIANT"}}}, {"name": "StatefulPartitionedCall/sequential_1/lstm_2/PartitionedCall/while/body/_36/while/mul_2", "op": "Mul", "input": ["StatefulPartitionedCall/sequential_1/lstm_2/PartitionedCall/while/body/_36/while/Sigmoid_2", "StatefulPartitionedCall/sequential_1/lstm_2/PartitionedCall/while/body/_36/while/Tanh_1"], "attr": {"T": {"type": "DT_FLOAT"}}}, {"name": "StatefulPartitionedCall/sequential_1/lstm_3/PartitionedCall/while/body/_96/while/TensorArrayV2Write/TensorListSetItem/index", "op": "Const", "input": ["^StatefulPartitionedCall/sequential_1/lstm_3/PartitionedCall/while/loop_body_control/_131"], "attr": {"value": {"tensor": {"dtype": "DT_INT32", "tensorShape": {}}}, "dtype": {"type": "DT_INT32"}}}, {"name": "StatefulPartitionedCall/sequential_1/lstm_3/PartitionedCall/while/body/_96/while/split/split_dim", "op": "Const", "input": ["^StatefulPartitionedCall/sequential_1/lstm_3/PartitionedCall/while/loop_body_control/_131"], "attr": {"value": {"tensor": {"dtype": "DT_INT32", "tensorShape": {}}}, "dtype": {"type": "DT_INT32"}}}, {"name": "StatefulPartitionedCall/sequential_1/lstm_3/PartitionedCall/while/next_iteration/_151", "op": "NextIteration", "input": ["StatefulPartitionedCall/sequential_1/lstm_3/PartitionedCall/while/StatefulPartitionedCall/sequential_1/lstm_3/PartitionedCall/TensorArrayUnstack/TensorListFromTensor_switch/_127:1", "^StatefulPartitionedCall/sequential_1/lstm_3/PartitionedCall/while/loop_body_control/_131"], "attr": {"T": {"type": "DT_VARIANT"}}}, {"name": "StatefulPartitionedCall/sequential_1/lstm_3/PartitionedCall/while/body/_96/while/TensorArrayV2Read/TensorListGetItem/element_shape", "op": "Const", "input": ["^StatefulPartitionedCall/sequential_1/lstm_3/PartitionedCall/while/loop_body_control/_131"], "attr": {"value": {"tensor": {"dtype": "DT_INT32", "tensorShape": {"dim": [{"size": "2"}]}}}, "dtype": {"type": "DT_INT32"}}}, {"name": "StatefulPartitionedCall/sequential_1/lstm_3/PartitionedCall/while/next_iteration/_152", "op": "NextIteration", "input": ["StatefulPartitionedCall/sequential_1/lstm_3/PartitionedCall/while/Func/StatefulPartitionedCall/sequential_1/lstm_3/PartitionedCall/input/_27_switch/_128:1", "^StatefulPartitionedCall/sequential_1/lstm_3/PartitionedCall/while/loop_body_control/_131"], "attr": {"T": {"type": "DT_FLOAT"}}}, {"name": "StatefulPartitionedCall/sequential_1/lstm_3/PartitionedCall/while/next_iteration/_153", "op": "NextIteration", "input": ["StatefulPartitionedCall/sequential_1/lstm_3/PartitionedCall/while/Func/StatefulPartitionedCall/sequential_1/lstm_3/PartitionedCall/input/_28_switch/_129:1", "^StatefulPartitionedCall/sequential_1/lstm_3/PartitionedCall/while/loop_body_control/_131"], "attr": {"T": {"type": "DT_FLOAT"}}}, {"name": "StatefulPartitionedCall/sequential_1/lstm_3/PartitionedCall/while/next_iteration/_154", "op": "NextIteration", "input": ["StatefulPartitionedCall/sequential_1/lstm_3/PartitionedCall/while/Func/StatefulPartitionedCall/sequential_1/lstm_3/PartitionedCall/input/_29_switch/_130:1", "^StatefulPartitionedCall/sequential_1/lstm_3/PartitionedCall/while/loop_body_control/_131"], "attr": {"T": {"type": "DT_FLOAT"}}}, {"name": "StatefulPartitionedCall/sequential_1/lstm_3/PartitionedCall/while/body/_96/while/add_2/y", "op": "Const", "input": ["^StatefulPartitionedCall/sequential_1/lstm_3/PartitionedCall/while/loop_body_control/_131"], "attr": {"value": {"tensor": {"dtype": "DT_INT32", "tensorShape": {}}}, "dtype": {"type": "DT_INT32"}}}, {"name": "StatefulPartitionedCall/sequential_1/lstm_3/PartitionedCall/while/body/_96/while/add_3/y", "op": "Const", "input": ["^StatefulPartitionedCall/sequential_1/lstm_3/PartitionedCall/while/loop_body_control/_131"], "attr": {"value": {"tensor": {"dtype": "DT_INT32", "tensorShape": {}}}, "dtype": {"type": "DT_INT32"}}}, {"name": "StatefulPartitionedCall/sequential_1/lstm_3/PartitionedCall/while/body/_96/while/MatMul_1", "op": "MatMul", "input": ["StatefulPartitionedCall/sequential_1/lstm_3/PartitionedCall/while/Func/StatefulPartitionedCall/sequential_1/lstm_3/PartitionedCall/input/_25_switch/_124:1", "StatefulPartitionedCall/sequential_1/lstm_3/PartitionedCall/while/Func/StatefulPartitionedCall/sequential_1/lstm_3/PartitionedCall/input/_28_switch/_129:1", "^StatefulPartitionedCall/sequential_1/lstm_3/PartitionedCall/while/loop_body_control/_131"], "device": "/device:CPU:0", "attr": {"grad_a": {"b": false}, "transpose_a": {"b": false}, "T": {"type": "DT_FLOAT"}, "grad_b": {"b": false}, "transpose_b": {"b": false}}}, {"name": "StatefulPartitionedCall/sequential_1/lstm_3/PartitionedCall/while/next_iteration/_150", "op": "NextIteration", "input": ["StatefulPartitionedCall/sequential_1/lstm_3/PartitionedCall/while/StatefulPartitionedCall/sequential_1/lstm_3/PartitionedCall/strided_slice_switch/_126:1", "^StatefulPartitionedCall/sequential_1/lstm_3/PartitionedCall/while/loop_body_control/_131"], "attr": {"T": {"type": "DT_INT32"}}}, {"name": "StatefulPartitionedCall/sequential_1/lstm_3/PartitionedCall/TensorArrayV2Stack/TensorListStack", "op": "TensorListStack", "input": ["StatefulPartitionedCall/sequential_1/lstm_3/PartitionedCall/while/exit/_135", "StatefulPartitionedCall/sequential_1/lstm_3/PartitionedCall/TensorArrayV2Stack/TensorListStack/element_shape"], "attr": {"num_elements": {"i": "1"}, "element_dtype": {"type": "DT_FLOAT"}}}, {"name": "StatefulPartitionedCall/sequential_1/lstm_2/PartitionedCall/while/next_iteration/_88", "op": "NextIteration", "input": ["StatefulPartitionedCall/sequential_1/lstm_2/PartitionedCall/while/body/_36/while/mul_2", "^StatefulPartitionedCall/sequential_1/lstm_2/PartitionedCall/while/loop_body_control/_71"], "attr": {"T": {"type": "DT_FLOAT"}}}, {"name": "StatefulPartitionedCall/sequential_1/lstm_2/PartitionedCall/while/body/_36/while/TensorArrayV2Write/TensorListSetItem", "op": "TensorListSetItem", "input": ["StatefulPartitionedCall/sequential_1/lstm_2/PartitionedCall/while/StatefulPartitionedCall/sequential_1/lstm_2/PartitionedCall/TensorArrayV2_1_switch/_63:1", "Func/StatefulPartitionedCall/sequential_1/lstm_2/PartitionedCall/while/body/_36/input/_171", "StatefulPartitionedCall/sequential_1/lstm_2/PartitionedCall/while/body/_36/while/mul_2"], "attr": {"element_dtype": {"type": "DT_FLOAT"}, "resize_if_index_out_of_bounds": {"b": false}}, "experimentalType": {"typeId": "TFT_PRODUCT", "args": [{"typeId": "TFT_ARRAY", "args": [{"typeId": "TFT_TENSOR", "args": [{"typeId": "TFT_FLOAT"}]}]}]}}, {"name": "StatefulPartitionedCall/sequential_1/lstm_3/PartitionedCall/while/body/_96/while/TensorArrayV2Read/TensorListGetItem", "op": "TensorListGetItem", "input": ["StatefulPartitionedCall/sequential_1/lstm_3/PartitionedCall/while/StatefulPartitionedCall/sequential_1/lstm_3/PartitionedCall/TensorArrayUnstack/TensorListFromTensor_switch/_127:1", "StatefulPartitionedCall/sequential_1/lstm_3/PartitionedCall/while/StatefulPartitionedCall/sequential_1/lstm_3/PartitionedCall/time_switch/_122:1", "StatefulPartitionedCall/sequential_1/lstm_3/PartitionedCall/while/body/_96/while/TensorArrayV2Read/TensorListGetItem/element_shape"], "attr": {"element_dtype": {"type": "DT_FLOAT"}}}, {"name": "StatefulPartitionedCall/sequential_1/lstm_3/PartitionedCall/while/body/_96/while/add_2", "op": "AddV2", "input": ["StatefulPartitionedCall/sequential_1/lstm_3/PartitionedCall/while/StatefulPartitionedCall/sequential_1/lstm_3/PartitionedCall/time_switch/_122:1", "StatefulPartitionedCall/sequential_1/lstm_3/PartitionedCall/while/body/_96/while/add_2/y"], "attr": {"T": {"type": "DT_INT32"}}}, {"name": "StatefulPartitionedCall/sequential_1/lstm_3/PartitionedCall/while/body/_96/while/add_3", "op": "AddV2", "input": ["StatefulPartitionedCall/sequential_1/lstm_3/PartitionedCall/while/StatefulPartitionedCall/sequential_1/lstm_3/PartitionedCall/while/loop_counter_switch/_120:1", "StatefulPartitionedCall/sequential_1/lstm_3/PartitionedCall/while/body/_96/while/add_3/y"], "attr": {"T": {"type": "DT_INT32"}}}, {"name": "StatefulPartitionedCall/sequential_1/lstm_3/PartitionedCall/strided_slice_2", "op": "StridedSlice", "input": ["StatefulPartitionedCall/sequential_1/lstm_3/PartitionedCall/TensorArrayV2Stack/TensorListStack", "StatefulPartitionedCall/sequential_1/lstm_3/PartitionedCall/strided_slice_2/stack", "StatefulPartitionedCall/sequential_1/lstm_3/PartitionedCall/strided_slice_2/stack_1", "StatefulPartitionedCall/sequential_1/lstm_3/PartitionedCall/strided_slice_2/stack_2"], "attr": {"shrink_axis_mask": {"i": "1"}, "Index": {"type": "DT_INT32"}, "new_axis_mask": {"i": "0"}, "begin_mask": {"i": "0"}, "T": {"type": "DT_FLOAT"}, "end_mask": {"i": "0"}, "ellipsis_mask": {"i": "0"}}}, {"name": "StatefulPartitionedCall/sequential_1/lstm_2/PartitionedCall/while/next_iteration/_87", "op": "NextIteration", "input": ["StatefulPartitionedCall/sequential_1/lstm_2/PartitionedCall/while/body/_36/while/TensorArrayV2Write/TensorListSetItem", "^StatefulPartitionedCall/sequential_1/lstm_2/PartitionedCall/while/loop_body_control/_71"], "attr": {"T": {"type": "DT_VARIANT"}}}, {"name": "StatefulPartitionedCall/sequential_1/lstm_3/PartitionedCall/while/body/_96/while/add", "op": "_FusedMatMul", "input": ["StatefulPartitionedCall/sequential_1/lstm_3/PartitionedCall/while/body/_96/while/TensorArrayV2Read/TensorListGetItem", "StatefulPartitionedCall/sequential_1/lstm_3/PartitionedCall/while/Func/StatefulPartitionedCall/sequential_1/lstm_3/PartitionedCall/input/_27_switch/_128:1", "StatefulPartitionedCall/sequential_1/lstm_3/PartitionedCall/while/body/_96/while/MatMul_1"], "device": "/device:CPU:0", "attr": {"transpose_a": {"b": false}, "transpose_b": {"b": false}, "fused_ops": {"list": {"s": ["Qmlhc0FkZA=="]}}, "leakyrelu_alpha": {"f": 0.2}, "num_args": {"i": "1"}, "epsilon": {"f": 0.0}, "T": {"type": "DT_FLOAT"}}}, {"name": "StatefulPartitionedCall/sequential_1/lstm_3/PartitionedCall/while/next_iteration/_146", "op": "NextIteration", "input": ["StatefulPartitionedCall/sequential_1/lstm_3/PartitionedCall/while/body/_96/while/add_2", "^StatefulPartitionedCall/sequential_1/lstm_3/PartitionedCall/while/loop_body_control/_131"], "attr": {"T": {"type": "DT_INT32"}}}, {"name": "StatefulPartitionedCall/sequential_1/lstm_3/PartitionedCall/while/next_iteration/_144", "op": "NextIteration", "input": ["StatefulPartitionedCall/sequential_1/lstm_3/PartitionedCall/while/body/_96/while/add_3", "^StatefulPartitionedCall/sequential_1/lstm_3/PartitionedCall/while/loop_body_control/_131"], "attr": {"T": {"type": "DT_INT32"}}}, {"name": "StatefulPartitionedCall/sequential_1/dense_2/Relu", "op": "_FusedMatMul", "input": ["StatefulPartitionedCall/sequential_1/lstm_3/PartitionedCall/strided_slice_2", "StatefulPartitionedCall/sequential_1/dense_2/MatMul/ReadVariableOp", "StatefulPartitionedCall/sequential_1/dense_2/BiasAdd/ReadVariableOp"], "device": "/device:CPU:0", "attr": {"transpose_a": {"b": false}, "transpose_b": {"b": false}, "fused_ops": {"list": {"s": ["Qmlhc0FkZA==", "UmVsdQ=="]}}, "leakyrelu_alpha": {"f": 0.2}, "num_args": {"i": "1"}, "epsilon": {"f": 0.0}, "T": {"type": "DT_FLOAT"}}}, {"name": "StatefulPartitionedCall/sequential_1/lstm_3/PartitionedCall/while/body/_96/while/BiasAdd", "op": "BiasAdd", "input": ["StatefulPartitionedCall/sequential_1/lstm_3/PartitionedCall/while/body/_96/while/add", "StatefulPartitionedCall/sequential_1/lstm_3/PartitionedCall/while/Func/StatefulPartitionedCall/sequential_1/lstm_3/PartitionedCall/input/_29_switch/_130:1"], "attr": {"data_format": {"s": "TkhXQw=="}, "T": {"type": "DT_FLOAT"}}}, {"name": "StatefulPartitionedCall/sequential_1/dense_3/BiasAdd", "op": "_FusedMatMul", "input": ["StatefulPartitionedCall/sequential_1/dense_2/Relu", "StatefulPartitionedCall/sequential_1/dense_3/MatMul/ReadVariableOp", "StatefulPartitionedCall/sequential_1/dense_3/BiasAdd/ReadVariableOp"], "device": "/device:CPU:0", "attr": {"transpose_a": {"b": false}, "transpose_b": {"b": false}, "fused_ops": {"list": {"s": ["Qmlhc0FkZA=="]}}, "num_args": {"i": "1"}, "leakyrelu_alpha": {"f": 0.2}, "epsilon": {"f": 0.0}, "T": {"type": "DT_FLOAT"}}}, {"name": "StatefulPartitionedCall/sequential_1/lstm_3/PartitionedCall/while/body/_96/while/split", "op": "Split", "input": ["StatefulPartitionedCall/sequential_1/lstm_3/PartitionedCall/while/body/_96/while/split/split_dim", "StatefulPartitionedCall/sequential_1/lstm_3/PartitionedCall/while/body/_96/while/BiasAdd"], "attr": {"num_split": {"i": "4"}, "T": {"type": "DT_FLOAT"}}}, {"name": "StatefulPartitionedCall/sequential_1/dense_3/Softmax", "op": "Softmax", "input": ["StatefulPartitionedCall/sequential_1/dense_3/BiasAdd"], "attr": {"T": {"type": "DT_FLOAT"}}}, {"name": "StatefulPartitionedCall/sequential_1/lstm_3/PartitionedCall/while/body/_96/while/Sigmoid", "op": "Sigmoid", "input": ["StatefulPartitionedCall/sequential_1/lstm_3/PartitionedCall/while/body/_96/while/split"], "attr": {"T": {"type": "DT_FLOAT"}}}, {"name": "StatefulPartitionedCall/sequential_1/lstm_3/PartitionedCall/while/body/_96/while/Sigmoid_1", "op": "Sigmoid", "input": ["StatefulPartitionedCall/sequential_1/lstm_3/PartitionedCall/while/body/_96/while/split:1"], "attr": {"T": {"type": "DT_FLOAT"}}}, {"name": "StatefulPartitionedCall/sequential_1/lstm_3/PartitionedCall/while/body/_96/while/Tanh", "op": "Tanh", "input": ["StatefulPartitionedCall/sequential_1/lstm_3/PartitionedCall/while/body/_96/while/split:2"], "attr": {"T": {"type": "DT_FLOAT"}}}, {"name": "StatefulPartitionedCall/sequential_1/lstm_3/PartitionedCall/while/body/_96/while/Sigmoid_2", "op": "Sigmoid", "input": ["StatefulPartitionedCall/sequential_1/lstm_3/PartitionedCall/while/body/_96/while/split:3"], "attr": {"T": {"type": "DT_FLOAT"}}}, {"name": "Identity", "op": "Identity", "input": ["StatefulPartitionedCall/sequential_1/dense_3/Softmax"], "attr": {"T": {"type": "DT_FLOAT"}}}, {"name": "StatefulPartitionedCall/sequential_1/lstm_3/PartitionedCall/while/body/_96/while/mul", "op": "Mul", "input": ["StatefulPartitionedCall/sequential_1/lstm_3/PartitionedCall/while/body/_96/while/Sigmoid_1", "StatefulPartitionedCall/sequential_1/lstm_3/PartitionedCall/while/Func/StatefulPartitionedCall/sequential_1/lstm_3/PartitionedCall/input/_26_switch/_125:1"], "attr": {"T": {"type": "DT_FLOAT"}}}, {"name": "StatefulPartitionedCall/sequential_1/lstm_3/PartitionedCall/while/body/_96/while/mul_1", "op": "Mul", "input": ["StatefulPartitionedCall/sequential_1/lstm_3/PartitionedCall/while/body/_96/while/Sigmoid", "StatefulPartitionedCall/sequential_1/lstm_3/PartitionedCall/while/body/_96/while/Tanh"], "attr": {"T": {"type": "DT_FLOAT"}}}, {"name": "StatefulPartitionedCall/sequential_1/lstm_3/PartitionedCall/while/body/_96/while/add_1", "op": "AddV2", "input": ["StatefulPartitionedCall/sequential_1/lstm_3/PartitionedCall/while/body/_96/while/mul", "StatefulPartitionedCall/sequential_1/lstm_3/PartitionedCall/while/body/_96/while/mul_1"], "attr": {"T": {"type": "DT_FLOAT"}}}, {"name": "StatefulPartitionedCall/sequential_1/lstm_3/PartitionedCall/while/next_iteration/_149", "op": "NextIteration", "input": ["StatefulPartitionedCall/sequential_1/lstm_3/PartitionedCall/while/body/_96/while/add_1", "^StatefulPartitionedCall/sequential_1/lstm_3/PartitionedCall/while/loop_body_control/_131"], "attr": {"T": {"type": "DT_FLOAT"}}}, {"name": "StatefulPartitionedCall/sequential_1/lstm_3/PartitionedCall/while/body/_96/while/Tanh_1", "op": "Tanh", "input": ["StatefulPartitionedCall/sequential_1/lstm_3/PartitionedCall/while/body/_96/while/add_1"], "attr": {"T": {"type": "DT_FLOAT"}}}, {"name": "StatefulPartitionedCall/sequential_1/lstm_3/PartitionedCall/while/body/_96/while/mul_2", "op": "Mul", "input": ["StatefulPartitionedCall/sequential_1/lstm_3/PartitionedCall/while/body/_96/while/Sigmoid_2", "StatefulPartitionedCall/sequential_1/lstm_3/PartitionedCall/while/body/_96/while/Tanh_1"], "attr": {"T": {"type": "DT_FLOAT"}}}, {"name": "StatefulPartitionedCall/sequential_1/lstm_3/PartitionedCall/while/next_iteration/_148", "op": "NextIteration", "input": ["StatefulPartitionedCall/sequential_1/lstm_3/PartitionedCall/while/body/_96/while/mul_2", "^StatefulPartitionedCall/sequential_1/lstm_3/PartitionedCall/while/loop_body_control/_131"], "attr": {"T": {"type": "DT_FLOAT"}}}, {"name": "StatefulPartitionedCall/sequential_1/lstm_3/PartitionedCall/while/body/_96/while/TensorArrayV2Write/TensorListSetItem", "op": "TensorListSetItem", "input": ["StatefulPartitionedCall/sequential_1/lstm_3/PartitionedCall/while/StatefulPartitionedCall/sequential_1/lstm_3/PartitionedCall/TensorArrayV2_1_switch/_123:1", "StatefulPartitionedCall/sequential_1/lstm_3/PartitionedCall/while/body/_96/while/TensorArrayV2Write/TensorListSetItem/index", "StatefulPartitionedCall/sequential_1/lstm_3/PartitionedCall/while/body/_96/while/mul_2"], "attr": {"element_dtype": {"type": "DT_FLOAT"}, "resize_if_index_out_of_bounds": {"b": false}}, "experimentalType": {"typeId": "TFT_PRODUCT", "args": [{"typeId": "TFT_ARRAY", "args": [{"typeId": "TFT_TENSOR", "args": [{"typeId": "TFT_FLOAT"}]}]}]}}, {"name": "StatefulPartitionedCall/sequential_1/lstm_3/PartitionedCall/while/next_iteration/_147", "op": "NextIteration", "input": ["StatefulPartitionedCall/sequential_1/lstm_3/PartitionedCall/while/body/_96/while/TensorArrayV2Write/TensorListSetItem", "^StatefulPartitionedCall/sequential_1/lstm_3/PartitionedCall/while/loop_body_control/_131"], "attr": {"T": {"type": "DT_VARIANT"}}}], "library": {}, "versions": {"producer": 1994}}, "weightsManifest": [{"paths": ["group1-shard1of1.bin"], "weights": [{"name": "StatefulPartitionedCall/sequential_1/lstm_3/PartitionedCall/TensorArrayV2_1/element_shape", "shape": [2], "dtype": "int32"}, {"name": "StatefulPartitionedCall/sequential_1/lstm_3/PartitionedCall/TensorArrayV2_1/num_elements", "shape": [], "dtype": "int32"}, {"name": "StatefulPartitionedCall/sequential_1/lstm_3/zeros_1/packed/1", "shape": [], "dtype": "int32"}, {"name": "StatefulPartitionedCall/sequential_1/lstm_3/zeros_1/Const", "shape": [], "dtype": "float32"}, {"name": "StatefulPartitionedCall/sequential_1/lstm_3/PartitionedCall/TensorArrayUnstack/TensorListFromTensor/element_shape", "shape": [2], "dtype": "int32"}, {"name": "StatefulPartitionedCall/sequential_1/lstm_3/Read/ReadVariableOp", "shape": [128, 512], "dtype": "float32"}, {"name": "StatefulPartitionedCall/sequential_1/lstm_2/PartitionedCall/transpose_1/perm", "shape": [3], "dtype": "int32"}, {"name": "StatefulPartitionedCall/sequential_1/lstm_3/strided_slice/stack", "shape": [1], "dtype": "int32"}, {"name": "StatefulPartitionedCall/sequential_1/lstm_3/strided_slice/stack_1", "shape": [1], "dtype": "int32"}, {"name": "StatefulPartitionedCall/sequential_1/lstm_3/strided_slice/stack_2", "shape": [1], "dtype": "int32"}, {"name": "StatefulPartitionedCall/sequential_1/lstm_3/zeros/packed/1", "shape": [], "dtype": "int32"}, {"name": "StatefulPartitionedCall/sequential_1/lstm_3/zeros/Const", "shape": [], "dtype": "float32"}, {"name": "StatefulPartitionedCall/sequential_1/lstm_3/Read_1/ReadVariableOp", "shape": [128, 512], "dtype": "float32"}, {"name": "StatefulPartitionedCall/sequential_1/lstm_3/Read_2/ReadVariableOp", "shape": [512], "dtype": "float32"}, {"name": "StatefulPartitionedCall/sequential_1/lstm_3/PartitionedCall/time", "shape": [], "dtype": "int32"}, {"name": "StatefulPartitionedCall/sequential_1/lstm_2/PartitionedCall/TensorArrayV2_1/element_shape", "shape": [2], "dtype": "int32"}, {"name": "StatefulPartitionedCall/sequential_1/lstm_2/zeros_1/packed/1", "shape": [], "dtype": "int32"}, {"name": "StatefulPartitionedCall/sequential_1/lstm_2/zeros_1/Const", "shape": [], "dtype": "float32"}, {"name": "StatefulPartitionedCall/sequential_1/lstm_2/PartitionedCall/TensorArrayUnstack/TensorListFromTensor/element_shape", "shape": [2], "dtype": "int32"}, {"name": "StatefulPartitionedCall/sequential_1/lstm_2/Read/ReadVariableOp", "shape": [6, 512], "dtype": "float32"}, {"name": "StatefulPartitionedCall/sequential_1/lstm_2/strided_slice/stack", "shape": [1], "dtype": "int32"}, {"name": "StatefulPartitionedCall/sequential_1/lstm_2/strided_slice/stack_1", "shape": [1], "dtype": "int32"}, {"name": "StatefulPartitionedCall/sequential_1/lstm_2/strided_slice/stack_2", "shape": [1], "dtype": "int32"}, {"name": "StatefulPartitionedCall/sequential_1/lstm_2/zeros/packed/1", "shape": [], "dtype": "int32"}, {"name": "StatefulPartitionedCall/sequential_1/lstm_2/zeros/Const", "shape": [], "dtype": "float32"}, {"name": "StatefulPartitionedCall/sequential_1/lstm_2/Read_1/ReadVariableOp", "shape": [128, 512], "dtype": "float32"}, {"name": "StatefulPartitionedCall/sequential_1/lstm_2/Read_2/ReadVariableOp", "shape": [512], "dtype": "float32"}, {"name": "StatefulPartitionedCall/sequential_1/lstm_2/PartitionedCall/time", "shape": [], "dtype": "int32"}, {"name": "StatefulPartitionedCall/sequential_1/lstm_2/PartitionedCall/transpose/perm", "shape": [3], "dtype": "int32"}, {"name": "StatefulPartitionedCall/sequential_1/lstm_2/PartitionedCall/strided_slice/stack", "shape": [1], "dtype": "int32"}, {"name": "StatefulPartitionedCall/sequential_1/lstm_2/PartitionedCall/strided_slice/stack_1", "shape": [1], "dtype": "int32"}, {"name": "StatefulPartitionedCall/sequential_1/lstm_2/PartitionedCall/strided_slice/stack_2", "shape": [1], "dtype": "int32"}, {"name": "StatefulPartitionedCall/sequential_1/lstm_2/PartitionedCall/while/loop_counter", "shape": [], "dtype": "int32"}, {"name": "StatefulPartitionedCall/sequential_1/lstm_2/PartitionedCall/TensorArrayV2Stack/TensorListStack/element_shape", "shape": [2], "dtype": "int32"}, {"name": "StatefulPartitionedCall/sequential_1/lstm_3/PartitionedCall/strided_slice/stack", "shape": [1], "dtype": "int32"}, {"name": "StatefulPartitionedCall/sequential_1/lstm_3/PartitionedCall/strided_slice/stack_1", "shape": [1], "dtype": "int32"}, {"name": "StatefulPartitionedCall/sequential_1/lstm_3/PartitionedCall/strided_slice/stack_2", "shape": [1], "dtype": "int32"}, {"name": "StatefulPartitionedCall/sequential_1/lstm_3/PartitionedCall/while/loop_counter", "shape": [], "dtype": "int32"}, {"name": "StatefulPartitionedCall/sequential_1/lstm_3/PartitionedCall/TensorArrayV2Stack/TensorListStack/element_shape", "shape": [2], "dtype": "int32"}, {"name": "StatefulPartitionedCall/sequential_1/lstm_3/PartitionedCall/strided_slice_2/stack", "shape": [1], "dtype": "int32"}, {"name": "StatefulPartitionedCall/sequential_1/lstm_3/PartitionedCall/strided_slice_2/stack_1", "shape": [1], "dtype": "int32"}, {"name": "StatefulPartitionedCall/sequential_1/lstm_3/PartitionedCall/strided_slice_2/stack_2", "shape": [1], "dtype": "int32"}, {"name": "StatefulPartitionedCall/sequential_1/dense_2/MatMul/ReadVariableOp", "shape": [128, 64], "dtype": "float32"}, {"name": "StatefulPartitionedCall/sequential_1/dense_2/BiasAdd/ReadVariableOp", "shape": [64], "dtype": "float32"}, {"name": "StatefulPartitionedCall/sequential_1/dense_3/MatMul/ReadVariableOp", "shape": [64, 5], "dtype": "float32"}, {"name": "StatefulPartitionedCall/sequential_1/dense_3/BiasAdd/ReadVariableOp", "shape": [5], "dtype": "float32"}, {"name": "StatefulPartitionedCall/sequential_1/lstm_2/PartitionedCall/while/body/_36/while/split/split_dim", "shape": [], "dtype": "int32"}, {"name": "StatefulPartitionedCall/sequential_1/lstm_2/PartitionedCall/while/body/_36/while/TensorArrayV2Read/TensorListGetItem/element_shape", "shape": [2], "dtype": "int32"}, {"name": "StatefulPartitionedCall/sequential_1/lstm_2/PartitionedCall/while/body/_36/while/add_2/y", "shape": [], "dtype": "int32"}, {"name": "StatefulPartitionedCall/sequential_1/lstm_2/PartitionedCall/while/body/_36/while/add_3/y", "shape": [], "dtype": "int32"}, {"name": "StatefulPartitionedCall/sequential_1/lstm_3/PartitionedCall/while/body/_96/while/TensorArrayV2Write/TensorListSetItem/index", "shape": [], "dtype": "int32"}, {"name": "StatefulPartitionedCall/sequential_1/lstm_3/PartitionedCall/while/body/_96/while/split/split_dim", "shape": [], "dtype": "int32"}, {"name": "StatefulPartitionedCall/sequential_1/lstm_3/PartitionedCall/while/body/_96/while/TensorArrayV2Read/TensorListGetItem/element_shape", "shape": [2], "dtype": "int32"}, {"name": "StatefulPartitionedCall/sequential_1/lstm_3/PartitionedCall/while/body/_96/while/add_2/y", "shape": [], "dtype": "int32"}, {"name": "StatefulPartitionedCall/sequential_1/lstm_3/PartitionedCall/while/body/_96/while/add_3/y", "shape": [], "dtype": "int32"}]}]}